Assets/Models/Park90RC2.onnx (onnx, 167506 bytes, 9 tensors)

network_body.observation_encoder.processors.0.normalizer.running_mean f4 [182]
0.23833787 0.67697865 0.24518687 0.6751899 0.2348072 0.6761524 0.25384876 0.6724474
0.23072569 0.6730156 0.26301324 0.67224085 0.23369294 0.6728072 0.27594626 0.6705203
0.23464663 0.67084116 0.2791977 0.6676049 0.24126233 0.66480434 0.28198826 0.6650378
0.25242084 0.6587581 0.28713652 0.6633138 0.266717 0.6569789 0.29677957 0.66327065
0.2825381 0.66054463 0.3059528 0.6662296 0.29951683 0.6699287 0.3179454 0.6734617
0.3228708 0.68464714 0.32799694 0.6861787 0.34943828 0.6998458 0.33863056 0.70101887
0.37363425 0.7128247 0.35174102 0.7147911 0.39692932 0.7224227 0.36952236 0.72894037
0.41705734 0.72743434 0.38946745 0.7430452 0.42972913 0.7353794 0.41719615 0.75784034
0.44686794 0.750338 0.44651642 0.77360106 0.46713132 0.77167845 0.48174515 0.78769875
0.4877911 0.7940624 0.5155504 0.80048704 0.51724935 0.8131801 0.5507469 0.81115025
0.5437925 0.8256256 0.57552904 0.8188159 0.5733408 0.83412707 0.59692883 0.82616615
0.5958341 0.8393301 0.6152624 0.83345497 0.61831945 0.84215355 0.6308113 0.84170276
0.6458546 0.84710836 0.6512106 0.8529184 0.66733813 0.8548446 0.6801569 0.8662175
0.6946969 0.8654145 0.7110573 0.8797167 0.72061616 0.87656283 0.74189085 0.8930858
0.7428212 0.88875574 0.7687825 0.9055759 0.76088876 0.9015436 0.7891117 0.91819555
0.7880714 0.9144981 0.81290954 0.9313628 0.81177366 0.92676157 0.8372493 0.9438068
0.8286419 0.9388255 0.85905254 0.9555696 0.84943223 0.95101213 0.8882975 0.9654735
0.8727795 0.96243125 0.90692157 0.9737349 0.8914523 0.9734357 0.9244369 0.981057
0.9172916 0.98338604 0.9390591 0.98782945 0.94646484 0.9917603 0.9610274 0.993465
0.97660947 0.9976691 0.9779991 0.997078 0.99699193 0.99969363 0.9909526 0.999136
0.99952966 0.9999101 0.99806935 0.99982506 0.99992895 0.9999312 0.9995734 0.9998822
0.9999261 0.9999286 0.9998564 0.9999316 0.99992716 0.99992937 0.9999254 0.9999294
0.9999253 0.99992764 0.9999259 0.9999281 0.9999259 0.9999281
00000000: d80e 743e 794e 2d3f 4412 7b3e 3fd9 2c3f
00000010: 4c71 703e 5318 2d3f 77f8 813e 8325 2c3f
00000020: 5b43 6c3e c04a 2c3f aca9 863e fa17 2c3f
00000030: 344d 6f3e 183d 2c3f d448 8d3e 38a7 2b3f
00000040: 3547 703e 3fbc 2b3f 00f3 8e3e 28e8 2a3f
00000050: 790d 773e 9e30 2a3f c460 903e eb3f 2a3f
00000060: 4e3d 813e 5fa4 283f 8f03 933e efce 293f
00000070: 218f 883e c52f 283f 7ef3 973e 1bcc 293f
00000080: d5a8 903e 7419 293f d8a5 9c3e 068e 2a3f
00000090: 455a 993e 7380 2b3f bdc9 a23e fc67 2c3f
000000a0: 524f a53e 0945 2f3f 37ef a73e 68a9 2f3f
000000b0: 93e9 b23e 1829 333f fc60 ad3e f975 333f
000000c0: fd4c bf3e ae7b 363f 6617 b43e 8dfc 363f
000000d0: 523a cb3e b2f0 383f 0932 bd3e d69b 3a3f
000000e0: 8a88 d53e 2339 3a3f 4768 c73e 3638 3e3f
000000f0: 7505 dc3e d341 3c3f bc9a d53e d301 423f
00000100: e0cb e43e 2716 403f cd9d e43e b80a 463f
00000110: d62b ef3e b88c 453f 4da7 f63e a0a6 493f
00000120: c1bf f93e ac47 4b3f 1cfb 033f b8ec 4c3f
00000130: 746a 043f 922c 503f c0fd 0c3f 8ba7 4f3f
00000140: fc35 0b3f 335c 533f df55 133f eb9d 513f
00000150: 76c6 123f 5a89 553f 54d0 183f a07f 533f
00000160: 9588 183f 56de 563f d681 1d3f 4e5d 553f
00000170: 2f4a 1e3f 6097 573f d97c 213f d579 573f
00000180: ba56 253f 18dc 583f bdb5 263f dc58 5a3f
00000190: acd6 2a3f 19d7 5a3f c31e 2e3f 6ec0 5d3f
000001a0: a8d7 313f ce8b 5d3f da07 363f 1d35 613f
000001b0: 4d7a 383f 6c66 603f 8fec 3d3f 45a1 643f
000001c0: 8829 3e3f 7f85 633f eece 443f d2d3 673f
000001d0: 9bc9 423f 90cb 663f 3903 4a3f dd0e 6b3f
000001e0: 0cbf 493f 8c1c 6a3f d71a 503f cb6d 6e3f
000001f0: 66d0 4f3f 3f40 6d3f f855 563f 539d 713f
00000200: e021 543f de56 703f deea 5b3f 36a0 743f
00000210: 6474 593f 8875 733f 7767 633f 4529 773f
00000220: 7a6e 5f3f e561 763f 032c 683f b146 793f
00000230: 3836 643f 1533 793f e6a7 6c3f 8d26 7b3f
00000240: 9fd3 6a3f 30bf 7b3f 2d66 703f 64e2 7c3f
00000250: 854b 723f 01e4 7d3f e405 763f b953 7e3f
00000260: 1403 7a3f 3e67 7f3f 265e 7a3f 8140 7f3f
00000270: dd3a 7f3f eceb 7f3f 12af 7d3f 60c7 7f3f
00000280: 2de1 7f3f 1cfa 7f3f 7981 7f3f 89f4 7f3f
00000290: 58fb 7f3f 7efb 7f3f 0be4 7f3f 48f8 7f3f
000002a0: 28fb 7f3f 52fb 7f3f 97f6 7f3f 84fb 7f3f
000002b0: 3afb 7f3f 5ffb 7f3f 1cfb 7f3f 60fb 7f3f
000002c0: 1bfb 7f3f 42fb 7f3f 25fb 7f3f 4afb 7f3f
000002d0: 25fb 7f3f 4afb 7f3f

network_body._body_endoder.seq_layers.0.weight f4 [128, 182]
-0.052674767 -0.10918904 -0.06385064 0.05422137 0.032120645 -0.063281566 0.02393756 0.12960343
-0.06769704 0.13081084 0.042182535 -0.08830932 0.04478723 0.14478646 -0.009419976 0.052077983
0.02736081 0.022881439 0.015175615 0.091971375 -0.022263294 -0.006948585 -0.04918801 -0.11107423
0.062288057 -0.031994626 0.068413794 -0.057321172 0.077845454 -0.03381193 0.03262216 0.04524668
-0.0009875459 0.056278486 -0.053314153 0.04607794 0.016770687 -0.07642839 -0.014474434 -0.034474485
-0.11131369 -0.01617001 -0.103897505 0.051092535 -0.03707203 -0.05481528 -0.0596023 -0.016572786
-0.06941898 0.027036417 0.10225142 -0.08192634 0.1311457 -0.044415154 0.1113326 0.035158843
-0.0183623 0.088433824 0.102032766 -0.11293416 0.12723047 0.0098864315 0.02422481 0.054425325
-0.122645125 0.11519306 -0.057922237 -0.1575388 -0.07895665 0.005654805 -0.19315937 0.04218502
0.049875572 0.1342928 0.11551175 0.015462723 -0.094229564 -0.011741814 0.059963025 0.077986635
0.030051004 0.13135736 0.03195603 -0.046989437 0.011284266 -0.031266563 0.008682997 -0.102056034
0.023348417 0.017461697 0.012462364 0.06661012 -0.007941531 0.014897378 0.064348 0.0909348
0.04018121 -0.021142192 0.09465733 -0.012507402 0.011692065 0.095019214 -0.07600909 0.10552367
0.022002162 0.06077571 0.050227147 -0.012346786 0.07792189 0.024021253 0.0014417447 0.024232801
0.14644158 -0.0027086448 0.11049602 0.059221826 0.07841166 -0.08785687 0.035654694 0.10848678
0.0857164 -0.0068267547 0.030806711 -0.09044747 -0.0009714115 0.009623957 0.050985135 0.07731436
0.007115855 -0.10215487 -0.060823213 0.1922341 0.010126586 -0.044033337 0.06495328 -0.03535331
0.054761253 0.013220589 -0.05596304 0.019145625 0.10143632 -0.0671772 0.013488463 0.04028991
0.09082715 -0.03912087 -0.017433032 0.0418816 0.0016687617 -0.08272141 -0.030348444 -0.0460009
-0.21143511 -0.06409844 -0.084862895 -0.11083097 0.1444567 0.008939064 0.06591742 0.07005476
0.055452798 0.041952886 -0.018490918 0.12633005 -0.0038371175 0.03396141 0.076166876 0.0022456876
0.05956501 -0.048145924 -0.010988866 0.052165966 -0.09321804 0.15140411 0.026200633 0.09828345
-0.019345464 -0.06301458 -0.113275856 -0.036976513 0.041448835 -0.1529505 0.014709686 -0.097375974
-0.011665053 0.04123929 -0.015688844 0.093988605 -0.05950328 0.3314592 0.09432133 0.13190831
0.032083828 0.07435791 0.017903246 -0.037583802 -0.042400207 -0.048060752 -0.0073654023 0.034036186
-0.04488782 -0.089667276 -0.05212789 -0.07418666 -0.09766933 0.032353323 0.013459233 0.017560156
0.063905224 0.07488572 -0.03639893 -0.055053048 -0.017763237 0.100765266 0.107949175 0.057182856
-0.052985206 -0.043293077 0.07355217 0.028364373 0.03348473 0.08425301 0.07841218 0.09058444
0.0026764865 0.037927404 -0.069449686 -0.009212338 0.020736273 0.05909674 -0.041437898 -0.058905385
-0.085435495 -0.0072189067 -0.11607418 -0.016812194 -0.002876859 -0.03223043 0.0008449273 -0.010972372
-0.03893894 -0.06059663 0.023523867 0.116608165 0.069271505 -0.02312179 -0.06253816 0.041624825
0.09455702 -0.03460399 0.1231257 0.008135619 -0.092948884 -0.12749927 0.10981625 0.04040978
00000000: 7fc1 57bd 819e dfbd 20c4 82bd 3a17 5e3d
00000010: f090 033d c499 81bd b418 c43c c3b6 043e
00000020: bfa4 8abd 47f3 053e 98c7 2c3d 84db b4bd
00000030: d172 373d e742 143e 3e56 1abc b94f 553d
00000040: c723 e03c db71 bb3c 25a3 783c 7d5b bc3d
00000050: 8361 b6bc f5b0 e3bb 5e79 49bd e37a e3bd
00000060: c321 7f3d cc0c 03bd 881c 8c3d 9bc9 6abd
00000070: 706d 9f3d 617e 0abd d09e 053d 9554 393d
00000080: 8b70 81ba 4584 663d f15f 5abd 39bc 3c3d
00000090: ae62 893c 7d86 9cbd 2d26 6dbc 1e35 0dbd
000000a0: 6ff8 e3bd f876 84bc 37c8 d4bd 6846 513d
000000b0: d7d8 17bd fd85 60bd 8b21 74bd a7c3 87bc
000000c0: 8a2b 8ebd 7a7b dd3c 3169 d13d ffc8 a7bd
000000d0: 0f4b 063e aaec 35bd 5902 e43d b802 103d
000000e0: 896c 96bc cb1c b53d 8ef6 d03d 064a e7bd
000000f0: b448 023e b3fa 213c 1c73 c63c 17ed 5e3d
00000100: 5e2d fbbd 57ea eb3d de3f 6dbd da51 21be
00000110: 06b4 a1bd f14b b93b 92cb 45be 33ca 2c3d
00000120: 544a 4c3d 0d84 093e 6d91 ec3d 5c57 7d3c
00000130: 6efb c0bd bd60 40bc ca9b 753d 75b7 9f3d
00000140: 862d f63c 8b82 063e 53e4 023d ff77 40bd
00000150: a4e1 383c 5e11 00bd 2143 0e3c c102 d1bd
00000160: 2e45 bf3c d50b 8f3c f12e 4c3c e36a 883d
00000170: 321d 02bc 2214 743c e2c8 833d 063c ba3d
00000180: 0d95 243d 6432 adbc b4db c13d d9eb 4cbc
00000190: 1390 3f3c 6f99 c23d a7aa 9bbd cb1c d83d
000001a0: e13d b43c f3ef 783d fbba 4d3d 2d4a 4abc
000001b0: 8395 9f3d 38c8 c43c edf8 bc3a de83 c63c
000001c0: c8f4 153e 8583 31bb bd4b e23d 9692 723d
000001d0: 4b96 a03d 4dee b3bd a80a 123d 512e de3d
000001e0: 148c af3d f8b2 dfbb 5b5e fc3c 863c b9bd
000001f0: 52a6 7eba cdad 1d3c cad5 503d fe56 9e3d
00000200: 1e2c e93b 9336 d1bd c321 79bd 04d9 443e
00000210: fbe9 253c 4d5c 34bd 3a06 853d a2ce 10bd
00000220: 564d 603d 2b9b 583c 8039 65bd 49d7 9c3c
00000230: d8bd cf3d 3394 89bd b7fe 5c3c 0807 253d
00000240: 9603 ba3d 353d 20bd b8cf 8ebc 0a8c 2b3d
00000250: 5aba da3a d869 a9bd 4d9d f8bc 716b 3cbd
00000260: 7282 58be 0b46 83bd 99cc adbd 59fb e2bd
00000270: 75ec 133e 2775 123c b6ff 863d df78 8f3d
00000280: 7922 633d cad6 2b3d 447a 97bc aa5c 013e
00000290: 2678 7bbb 1f1b 0b3d 61fd 9b3d 632c 133b
000002a0: 71fa 733d a934 45bd a50a 34bc fbab 553d
000002b0: 1ae9 bebd ae09 1b3e b6a2 d63c d548 c93d
000002c0: 617a 9ebc ca0d 81bd 2cfd e7bd af74 17bd
000002d0: 41c6 293d 0e9f 1cbe e500 713c 0e6d c7bd
000002e0: c71e 3fbc 88ea 283d e485 80bc 197d c03d
000002f0: b6b9 73bd 05b5 a93e 8b2b c13d f912 073e
00000300: 556a 033d f648 983d d4a9 923c 79f1 19bd
00000310: d7ab 2dbd 5adb 44bd 7959 f1bb 8769 0b3d
00000320: 4adc 37bd 7aa3 b7bd 0e84 55bd 2def 97bd
00000330: dc06 c8bd eb84 043d 1d84 5c3c 51da 8f3c
00000340: bee0 823d af5d 993d 0b17 15bd 4e7f 61bd
00000350: 3584 91bc 055e ce3d 7514 dd3d 9238 6a3d
00000360: 0407 59bd 1554 31bd 85a2 963d 675c e83c
00000370: 4927 093d d88c ac3d 9196 a03d 5684 b93d
00000380: fe67 2f3b c459 1b3d a33b 8ebd 59ef 16bc
00000390: 1edf a93c 6c0f 723d c9ba 29bd c646 71bd
000003a0: cef8 aebd 948c ecbb 4db8 edbd bab9 89bc
000003b0: af89 3cbb 0e04 04bd 1c7e 5d3a 77c5 33bc
000003c0: 707e 1fbd 2c34 78bd 20b5 c03c 43d0 ee3d
000003d0: 38de 8d3d e869 bdbc 0214 80bd cb7e 2a3d
000003e0: 1ca7 c13d eabc 0dbd 5429 fc3d 424b 053c
000003f0: fc5b bebd 2b8f 02be 58e7 e03d ba84 253d

network_body._body_endoder.seq_layers.0.bias f4 [128]
-0.013693857 -0.0321082 -0.014860673 0.014467314 -0.007921007 -0.009913193 -0.03002544 0.0023156248
-0.027647369 -0.033584576 -1.5783196e-05 0.013258375 -0.014581149 -0.020858329 -0.003172228 -0.0003530051
-0.0031630555 -0.0012397468 0.003968563 -0.0020865686 0.016647276 0.0033831666 -0.00515173 -0.023391236
-0.03174195 0.016995909 -0.03432175 -0.009107329 -0.02427606 -0.036363 -0.012044889 0.003169481
0.005683166 -0.010073669 -0.017946308 -0.014580401 -0.021487242 0.0009015183 0.037995722 -0.008943359
-0.025636151 -0.032720722 -0.018015733 -0.020714927 -0.031349014 0.014538969 -0.034217067 -0.0026863397
-0.03178077 -0.056130394 -0.0069587007 -0.044150192 -0.016324135 -0.006341515 0.010892658 -0.010702842
-0.031147454 -0.022257235 -0.03348724 -0.027692676 -0.006362731 -0.014389151 -0.03390346 -0.012227805
-0.0062661623 -0.026495447 -0.033830475 -0.019641874 -0.017874043 0.004503711 0.0049316986 -0.0054631303
-0.013374002 -0.01997755 -0.010795958 -0.019523539 -0.026910532 -0.03005756 -0.00066406815 -0.0017988755
-0.0011832592 -0.024572313 -0.05152048 -0.019364782 -0.0016585267 -0.026311949 -0.012120086 0.0027937782
-0.01600243 0.00017091505 -0.0027295393 -0.007975832 -0.052681215 -0.021978667 0.015665796 0.007544268
-0.015619393 -0.03038646 0.014484129 -0.0024611342 0.020956105 -0.0322585 0.0019160338 -0.0275564
-0.015165071 -0.04886401 -0.018792238 0.005320325 -0.012822546 -0.01021487 -0.012384538 -0.050257135
0.03933066 -0.040471565 -0.04291696 -0.026017522 -0.014154558 -0.0073446278 -0.0025580833 -0.02764381
-0.0022755277 -0.00066250435 -0.017950982 0.003387265 -0.0272029 -0.020207277 -0.0010858084 -0.009797231
00000000: 335c 60bc e383 03bd 2e7a 73bc 5008 6d3c
00000010: 1dc7 01bc f26a 22bc e9f7 f5bc bdc1 173b
00000020: bc7c e2bc fb8f 09bd 2866 84b7 a839 593c
00000030: c6e5 6ebc 16df aabc 28e5 4fbb 8b13 b9b9
00000040: 444b 4fbb 007f a2ba b80a 823b d0be 08bb
00000050: de5f 883c 1eb8 5d3b d8cf a8bb fa9e bfbc
00000060: d903 02bd 013b 8b3c f794 0cbd e836 15bc
00000070: 96de c6bc 5ef1 14bd ed57 45bc 11b7 4f3b
00000080: da39 ba3b 080c 25bc 2304 93bc a2e2 6ebc
00000090: 0306 b0bc de53 6c3a 67a1 1b3d 2b87 12bc
000000a0: e802 d2bc 2a06 06bd bb95 93bc 5ab2 a9bc
000000b0: d367 00bd db34 6e3c 3227 0cbd 4d0d 30bb
000000c0: 8d2c 02bd fce8 65bd d005 e4bb d5d6 34bd
000000d0: 31ba 85bc 7ccc cfbb 1e77 323c f95a 2fbc
000000e0: f228 ffbc ce54 b6bc eb29 09bd c0db e2bc
000000f0: 757e d0bb 79c0 6bbc 5bde 0abd 2257 48bc
00000100: 6154 cdbb fb0c d9bc d391 0abd ffe7 a0bc
00000110: 966c 92bc de93 933b 169a a13b 0f04 b3bb
00000120: a11e 5bbc f5a7 a3bc 88e1 30bc d4ef 9fbc
00000130: 7a73 dcbc 463b f6bc dc14 2eba 3fc8 ebba
00000140: 9717 9bba e04b c9bc 2407 53bd e4a2 9ebc
00000150: ec62 d9ba 288c d7bc 5393 46bc d217 373b
00000160: 8717 83bc a937 3339 12e2 32bb 10ad 02bc
00000170: 42c8 57bd 9b0c b4bc 8e55 803c e835 f73b
00000180: 7ce8 7fbc 06ed f8bc d74e 6d3c fb4a 21bb
00000190: 23ac ab3c 7d21 04bd 6d23 fb3a f6bd e1bc
000001a0: eb76 78bc a125 48bd 2ef2 99bc 1f56 ae3b
000001b0: a815 52bc 455c 27bc 84e8 4abc 6dda 4dbd
000001c0: 3019 213d 83c5 25bd b2c9 2fbd b322 d5bc
000001d0: 85e8 67bc 34ab f0bb 84a5 27bb 4575 e2bc
000001e0: 0521 15bb eaab 2dba f00d 93bc e0fc 5d3b
000001f0: 9ed8 debc bb89 a5bc af51 8eba 9184 20bc

network_body._body_endoder.seq_layers.2.weight f4 [128, 128]
0.0016641471 0.08419752 -0.03551591 -0.14874662 -0.11262374 -0.054217 -0.015350051 -0.20457764
-0.15710953 -0.039467167 -0.22615536 -0.050017275 -0.18984737 0.0025919825 0.06934765 0.2126532
-0.042434737 0.05054423 -0.1543475 -0.21145801 0.1640868 0.09736525 0.15101263 -0.053328328
0.11642019 -0.008131679 0.094211414 0.094867565 0.0365746 0.058968738 -0.10777794 0.05121302
0.054547638 0.011354652 0.08991649 0.094548866 -0.05040912 -0.09594184 -0.18231295 0.087825745
0.07065595 0.025284318 0.09906419 0.0046952693 0.1763208 -0.14438182 -0.17887011 0.02201287
-0.084693916 0.037250903 -0.061367977 -0.16180716 0.025247851 -0.019417804 0.0028093911 0.085121125
-0.07325341 -0.0010848249 0.030858556 -0.030598935 0.017643377 0.10266859 0.16144961 -0.0456296
-0.071404904 0.09263852 -0.06580741 -0.22627918 -0.19004193 -0.086532444 -0.12753177 -0.07471024
-0.074523315 -0.0013071726 0.04706218 -0.10054521 0.08906598 -0.021653246 -0.0989802 0.03426055
0.046366286 0.112076946 0.03284291 0.08940979 0.10113978 -0.060697697 -0.09957273 0.03763769
-0.15088037 -0.035914548 0.035165656 -0.030015774 0.062414978 0.040389325 -0.029149067 0.058158327
0.20913395 0.02815624 -0.110836565 0.11973238 -0.23635566 -0.061401777 -0.08799531 0.045706995
-0.14334887 -0.024535544 -0.026467005 -0.09090832 -0.05640153 0.010874394 -0.064485714 0.027243122
-0.12478868 -0.11932798 -0.1007467 0.037378993 0.018666591 -0.09267341 0.14047982 -0.047684073
-0.0051447833 0.10292863 -0.09919242 -0.0028490887 -0.062468458 -0.10756274 -0.015933612 0.018949024
-0.103755 -0.045055766 -0.038869474 -0.09711353 -0.028447352 -0.108062714 -0.009901901 -0.061487194
0.016997175 -0.16692364 0.06276642 -0.23956689 0.1057943 0.032753926 0.006681733 -0.025355998
-0.03305322 -0.061285943 0.035396773 -0.052116815 -0.2275211 -0.15216324 -0.045605246 -0.07043963
-0.13334285 -0.061300565 0.011722333 -0.08245801 -0.003608305 0.15197973 0.14259626 -0.095173895
-0.09219108 -0.091250926 -0.14555795 0.09945963 -0.19170128 0.08396141 0.08672928 0.12673514
-0.043222815 -0.14922392 -0.0805345 0.0907945 0.00926016 0.015460488 0.044263862 -0.07022152
-0.062152572 -0.034009766 -0.16468193 0.13099878 -0.077616364 -0.0069080093 -0.027023956 0.06735796
-0.025083238 0.119119175 0.00939782 -0.13447767 -0.02196651 -0.07793515 -0.011141095 0.11493343
0.15323365 0.064586416 0.031738434 -0.011345694 -0.053074896 -0.0048463074 -0.09834739 -0.03638019
0.041015647 -0.021392502 0.11194313 0.11003223 -0.043154344 0.013079043 -0.08197932 0.013710753
0.042800475 -0.10731147 -0.08216527 0.15131012 0.07088277 -0.01929885 -0.030289782 -0.13841845
-0.14824404 0.19716926 0.014304141 -0.09962272 0.055326115 -0.038326353 -0.060632814 -0.0021393588
0.009932969 -0.2275557 0.10851563 -0.07442407 -0.12929347 -0.0015087337 0.1542815 0.0739692
-0.040003132 0.14865863 0.07279533 -0.11032366 0.03767041 -0.046188165 -0.0043319706 0.034522936
-0.04279734 0.02313895 -0.032446004 -0.04803948 -0.069058515 0.12309821 0.035158157 0.06966233
0.014406071 -0.001005955 -0.008475347 0.04643409 0.013231684 0.08102187 0.069478974 -0.019823132
00000000: 831f da3a c06f ac3d 2179 11bd 0951 18be
00000010: 47a7 e6bd a512 5ebd c87e 7bbc cd7c 51be
00000020: 52e1 20be 53a8 21bd 4595 67be eade 4cbd
00000030: 5967 42be 40de 293b 2406 8e3d c3c1 593e
00000040: 0cd0 2dbd 7707 4f3d 450d 1ebe 7388 58be
00000050: 5f06 283e 6f67 c73d 0ea3 1a3e ce6e 5abd
00000060: b56d ee3d bc3a 05bc eaf1 c03d ed49 c23d
00000070: 3fcf 153d 3489 713d aeba dcbd bec4 513d
00000080: 586d 5f3d dd08 3a3c 2326 b83d d6a2 c13d
00000090: cb79 4ebd 287d c4bd 3fb0 3abe fcdd b33d
000000a0: 11b4 903d 0f21 cf3c 2be2 ca3d c6da 993b
000000b0: 718d 343e d4d8 13be ba29 37be 5654 b43c
000000c0: 0174 adbd 6794 183d fd5c 7bbd c7b0 25be
000000d0: 95d4 ce3c 1612 9fbc c31d 383b fc53 ae3d
000000e0: e205 96bd af30 8eba 15cb fc3c 9eaa fabc
000000f0: d888 903c e943 d23d 0c53 253e 1ae6 3abd
00000100: bc3c 92bd 44b9 bd3d 09c6 86bd bbb5 67be
00000110: 5a9a 42be ec37 b1bd b097 02be af01 99bd
00000120: ae9f 98bd 6f55 abba 46c4 403d a6ea cdbd
00000130: 3968 b63d 2662 b1bc 22b6 cabd ca54 0c3d
00000140: 93ea 3d3d 9988 e53d 4a86 063d 7b1c b73d
00000150: 5f22 cf3d 269e 78bd caec cbbd fa29 1a3d
00000160: 6280 1abe 221b 13bd dd09 103d a4e3 f5bc
00000170: d9a6 7f3d 476f 253d 06ca eebc 6d37 6e3d
00000180: 3627 563e eaa7 e63c 48fe e2bd 4036 f53d
00000190: 3807 72be 6e80 7bbd e336 b4bd 4237 3b3d
000001a0: 0cca 12be c4fe c8bc 55d1 d8bc 242e babd
000001b0: 4a05 67bd 842a 323c 1611 84bd f82c df3c
000001c0: 3591 ffbd 3a62 f4bd 4954 cebd b71a 193d
000001d0: aeea 983c 8fcb bdbd f1d9 0f3e 6050 43bd
000001e0: 9295 a8bb 3fcc d23d 6525 cbbd c7b7 3abb
000001f0: edde 7fbd db49 dcbd 3587 82bc fc3a 9b3c
00000200: 807d d4bd 658c 38bd 9935 1fbd 75e3 c6bd
00000210: 6c0a e9bc fc4f ddbd 953b 22bc ffd9 7bbd
00000220: a93d 8b3c 08ee 2abe ae8b 803d 0651 75be
00000230: afaa d83d fb28 063d 70f2 da3b 62b7 cfbc
00000240: d062 07bd f806 7bbd 35fc 103d 7178 55bd
00000250: 4bfb 68be aed0 1bbe 91cc 3abd a742 90bd
00000260: 078b 08be 4d16 7bbd 070f 403c bfdf a8bd
00000270: 5079 6cbb 93a0 1b3e c104 123e 88ea c2bd
00000280: adce bcbd c4e1 babd 250d 15be 7eb1 cb3d
00000290: 574d 44be f6f3 ab3d 1f9f b13d dbc6 013e
000002a0: 680a 31bd 28ce 18be 46ef a4bd 78f2 b93d
000002b0: edb7 173c fd4d 7d3c 064e 353d 4dd0 8fbd
000002c0: b293 7ebd d34d 0bbd 61a2 28be 8b24 063e
000002d0: 54f5 9ebd 955c e2bb 5861 ddbc f8f2 893d
000002e0: 5d7b cdbc c1f4 f33d 50f9 193c 84b4 09be
000002f0: 1cf3 b3bc 779c 9fbd 2489 36bc 3862 eb3d
00000300: 48e9 1c3e e245 843d 2900 023d 4ae3 39bc
00000310: 1065 59bd c6cd 9ebb 5b6a c9bd 6503 15bd
00000320: 0600 283d 543f afbc 7142 e53d 9458 e13d
00000330: 9cc2 30bd 7b49 563c c6e4 a7bd 11a3 603c
00000340: 8d4f 2f3d 1ec6 dbbd 4446 a8bd 0af1 1a3e
00000350: fc2a 913d 9f18 9ebc 4722 f8bc 91bd 0dbe
00000360: 49cd 17be bde6 493e ea5b 6a3c ff06 ccbd
00000370: a39d 623d 18fc 1cbd 1d5a 78bd 7c34 0cbb
00000380: e4bd 223c 5d04 69be 713d de3d a66b 98bd
00000390: 8265 04be b4c0 c5ba f8fb 1d3e 2a7d 973d
000003a0: 53da 23bd f839 183e b815 953d 5ff1 e1bd
000003b0: 4a4c 1a3d cd2f 3dbd 34f3 8dbb ec67 0d3d
000003c0: 434c 2fbd e58d bd3c 1ae6 04bd 0cc5 44bd
000003d0: 8d6e 8dbd ea1a fc3d 0002 103d 20ab 8e3d
000003e0: 7107 6c3c 40da 83ba 2fdc 0abc ac31 3e3d
000003f0: b5c9 583c cbee a53d fe4a 8e3d 1f64 a2bc

network_body._body_endoder.seq_layers.2.bias f4 [128]
-0.018351298 -0.02333695 0.013586394 -0.037613027 0.0046928194 -0.044683136 -0.004183082 -0.0029192818
-0.018572176 -0.02758513 -0.009988264 -0.022599408 0.010773542 -0.035293583 -0.010848161 -0.03525244
-0.037253123 0.0043138587 -0.024717314 -0.017344026 0.008137881 -0.0036523163 0.026074877 -0.010734467
-0.008700854 -0.021734916 -0.044854514 0.003869167 -0.008458259 -0.008700118 -0.023372335 0.0018481174
-0.0025498574 -0.008776369 -0.02585396 -0.0150818955 -0.028171334 -0.014813561 0.020414282 -0.025075471
-0.01509932 -0.022607004 -0.00019943468 -0.021363437 -0.036238182 -0.032557588 -0.008545623 -0.024369538
-0.01047897 0.005022871 0.0015770514 0.0072314357 -0.035436843 -0.026326396 0.011854999 0.0016184787
0.010158766 -0.037516564 -0.036649447 -0.029603953 -0.0075053917 -0.014193725 0.011850426 0.018864328
-0.0009161289 -0.0019482606 -0.005624821 -0.020080926 -0.024632527 -0.021865495 -0.029021176 -0.011700945
-0.0091859475 -0.004134534 -0.009655768 -0.009415569 -0.020960055 0.008926963 -0.01099996 -0.036597528
-0.011135105 -0.031075452 -0.0143612735 -0.029816892 -0.0371869 -0.024459304 -0.034152567 -0.014889108
-0.0071588987 -0.04256426 -0.021713458 -0.016215319 -0.017107194 0.0024723476 -0.039596982 -0.012110755
0.014940001 0.004300675 0.006139007 -0.0128356535 -0.036493074 -0.0031038264 -0.031356916 0.0032352626
-0.016554637 -0.01426634 -0.023349842 -0.02380657 0.0033843997 -0.0012554713 -0.02552732 -0.00818666
-0.011821465 -0.02700048 -0.02256129 -0.00033712748 0.011873702 0.01135196 -0.037365332 0.00742496
-0.022272216 0.012574386 -0.017677937 0.0053070383 -0.032945465 -0.02336602 -0.033459038 -0.04535411
00000000: 7655 96bc 222d bfbc 7799 5e3c 1e10 1abd
00000010: 39c6 993b aa05 37bd 3c12 89bb 6c51 3fbb
00000020: ad24 98bc 36fa e1bc d1a5 23bc 6522 b9bc
00000030: 8383 303c 0190 10bd 7cbc 31bc dd64 10bd
00000040: bb96 18bd 455b 8d3b f77b cabc 0f15 8ebc
00000050: bf54 053c b35b 6fbb fb9a d53c 9edf 2fbc
00000060: 078e 0ebc 6c0d b2bc 5eb9 37bd da91 7d3b
00000070: 8294 0abc f18a 0ebc 5777 bfbc 883c f23a
00000080: 821b 27bb c2ca 0fbc afcb d3bc 0e1a 77bc
00000090: 92c7 e6bc 94b4 72bc da3b a73c 136b cdbc
000000a0: 2363 77bc 5332 b9bc 571f 51b9 6002 afbc
000000b0: 7d6e 14bd 1b5b 05bd f102 0cbc a0a2 c7bc
000000c0: fcaf 2bbc e596 a43b 10b5 ce3a aef5 ec3b
000000d0: 3926 11bd 74aa d7bc 783b 423c 2223 d43a
000000e0: f470 263c f8aa 19bd bb1d 16bd fd83 f2bc
000000f0: caef f5bb cc8c 68bc 4a28 423c 5d89 9a3c
00000100: 5f28 70ba c75c ffba 6b50 b8bb c180 a4bc
00000110: 27ca c9bc 441f b3bc d1bd edbc 52b5 3fbc
00000120: a880 16bc fc7a 87bb 3a33 1ebc c243 1abc
00000130: 6cb4 abbc 6642 123c 2d39 34bc 4ae7 15bd
00000140: 0470 36bc f291 febc 8c4b 6bbc 8e42 f4bc
00000150: 4a51 18bd e15e c8bc 90e3 0bbd 72f1 73bc
00000160: 3295 eabb dd57 2ebd 6ce0 b1bc fdd5 84bc
00000170: 6324 8cbc 1c07 223b 7230 22bd 306c 46bc
00000180: e8c6 743c adec 8c3b b929 c93b a24c 52bc
00000190: c379 15bd 9169 4bbb 1c70 00bd b306 543b
000001a0: 979d 87bc 5ebd 69bc 2b48 bfbc ff05 c3bc
000001b0: cecc 5d3b a08e a4ba ac1e d1bc 5721 06bc
000001c0: d1ae 41bc 1c30 ddbc 74d2 b8bc 7cc0 b0b9
000001d0: ea89 423c 92fd 393c 640c 19bd 144d f33b
000001e0: 3974 b6bc cc04 4e3c 52d1 90bc aae6 ad3b
000001f0: d3f1 06bd 186a bfbc 580c 09bd 3bc5 39bd

action_model._continuous_distribution.log_sigma f4 [1, 2]
-0.389696 -0.21059708
00000000: 3c86 c7be c3a6 57be

action_model._continuous_distribution.mu.weight f4 [2, 128]
-0.027040044 -0.01592704 0.027877929 0.0054832087 -0.026731674 -0.008096837 0.0047030617 -0.01022069
-0.05490624 -0.010659064 0.018589575 0.02413214 -0.010273078 0.0052387915 -0.005885705 -0.001092643
0.030532492 -0.019963799 -0.034812395 0.030793594 0.006082636 0.0022808693 0.026781144 -0.0128641855
-0.039807025 0.004266828 -0.00265374 0.0012407142 0.027210636 -0.0246972 0.008838923 0.006756069
-0.009173136 0.00071046833 0.01808991 0.012646349 -0.02331487 0.039237585 -0.010342566 -0.015344137
0.007355756 0.0037352787 0.0005802461 0.005893492 0.0058581266 0.023504948 0.031408537 -0.008017936
0.030760381 -0.057726257 -0.021915697 0.033276156 0.005461809 -0.011188757 0.032072835 -0.00048855797
0.016261186 -0.0029449102 -0.016296672 -0.01857958 0.020697532 -0.04791423 0.007553078 0.028324883
-0.006415469 -0.0043358263 -0.008747793 0.028158868 0.009853555 -0.008483548 -0.018925317 0.059446685
0.003513564 0.014408655 0.021386875 0.003778876 0.028639976 0.03233393 -0.03949656 -0.00660745
0.026642997 -0.0017064482 -0.03416691 -0.019117715 0.010416023 0.0142037505 0.0062942836 -0.0017284108
0.0007320719 -0.009683508 -0.0023448633 0.009144381 0.011294059 0.047599558 0.004004834 0.022622965
0.04294091 0.031831827 0.015900401 -0.042246185 -0.007051903 0.00041949502 0.00755166 0.02908534
-0.0050332495 0.009890762 -0.0006951071 0.010962151 0.009055988 0.007843035 -0.025759308 0.031435914
0.014509587 -0.016968422 0.0051911343 -0.04324398 0.02092722 -0.04163219 -0.027628949 0.0040001534
-0.040403422 0.009071751 -0.024250917 0.040370744 -0.005564498 -0.014366695 0.0057845884 -0.002332573
-0.056343373 -0.019818066 0.02558124 -0.047523048 0.08077605 0.008146981 0.042553194 0.03448879
-0.012735858 0.0030010904 -0.0043362738 -0.012250642 0.03509214 0.010570629 0.02270191 -0.037537556
-0.052849054 0.033431195 0.005144262 0.0034888964 0.020785244 0.03362961 0.04952962 0.029836979
0.014498152 -0.015962588 0.0017847505 0.06544646 -0.01192218 0.028191403 0.0016042647 -0.00783624
0.0076267314 0.002664262 -0.041968394 -0.061423175 -0.019743174 0.0020687762 0.037803836 -0.014636489
-0.0302224 0.001128152 0.013777533 -0.032310385 -0.019015903 -0.017768223 -0.066355824 -0.026417026
-0.015148802 0.035601847 0.043725457 0.0076141874 0.00027368942 -0.055609174 -0.007248919 0.010349728
0.04178195 -0.02572093 -0.028701473 -0.058437943 0.01982633 0.010443775 0.086778075 0.047498185
0.040823407 0.0046736775 -0.015905468 -0.04277683 -0.032704495 -0.024380261 -0.015433961 -0.09252006
0.008322848 -0.046869792 0.012944105 -0.059698567 -0.044585045 0.017871916 -0.0496512 0.006576887
0.0047460296 -0.031193495 0.020328388 0.00498577 0.023928406 -0.0110453395 -0.055299517 -0.03584745
0.014579879 -0.040464897 -0.013643702 -0.034725726 -0.033051714 -0.011717225 -0.008138734 -0.02514927
0.014673638 0.02495123 0.004818004 0.020802047 0.00908412 0.015308789 -0.01829029 -0.013015943
0.0016530287 -0.00036855557 0.013510782 -0.004679724 0.025513412 0.011994361 0.0071437405 -0.002443358
-0.06539277 0.0071058264 -0.01023227 0.008582871 0.050741494 0.026134193 -0.0085741235 0.028756002
-0.0110293655 0.059864026 0.02193885 -0.0072916904 -0.010298945 -0.0372229 -0.011635353 -0.036547262
00000000: 1583 ddbc 6c79 82bc 4160 e43c 7dac b33b
00000010: 62fc dabc 99a8 04bc 241c 9a3b ae74 27bc
00000020: 5ee5 60bd 5ba3 2ebc 2a49 983c c4b0 c53c
00000030: 6a50 28bc 2baa ab3b dfdc c0bb 0437 8fba
00000040: 471f fa3c 1f8b a3bc 7197 0ebd d942 fc3c
00000050: d950 c73b a37a 153b 2164 db3c 4ec4 52bc
00000060: b10c 23bd bfd0 8b3b 5fea 2dbb 769f a23a
00000070: d7e8 de3c c851 cabc 21d1 103c 0462 dd3b
00000080: ec4a 16bc b93e 3a3a 4a31 943c a232 4f3c
00000090: d4fe bebc 97b7 203d de73 29bc fa65 7bbc
000000a0: 8e08 f13b 94cb 743b a81b 183a 321e c13b
000000b0: 87f5 bf3b 738d c03c 3da6 003d a95d 03bc
000000c0: 32fd fb3c 5e72 6cbd 8c88 b3bc 944c 083d
000000d0: faf8 b23b 0c51 37bc ce5e 033d 9212 00ba
000000e0: 2e36 853c 65ff 40bb 9980 85bc 3434 98bc
000000f0: df8d a93c b641 44bd cf7f f73b 9609 e83c
00000100: db38 d2bb 8c13 8ebb e752 0fbc 6dad e63c
00000110: ce70 213c 94fe 0abc 4409 9bbc 5e7e 733d
00000120: d243 663b 4812 6c3c 8733 af3c 05a7 773b
00000130: 629e ea3c 9570 043d 25c7 21bd 4f83 d8bb
00000140: 6a42 da3c e6aa dfba 9af2 0bbd c19c 9cbc
00000150: f8a7 2a3c d9b6 683c 4740 ce3b d88b e2ba
00000160: 83e8 3f3a 94a7 1ebc 47ac 19bb 50d2 153c
00000170: b80a 393c c1f7 423d fc3a 833b cc53 b93c
00000180: cfe2 2f3d 1762 023d 8f41 823c 560a 2dbd
00000190: a613 e7bb abef db39 ea73 f73b 6144 ee3c
000001a0: f5ed a4bb dd0c 223c d937 36ba 989a 333c
000001b0: 915f 143c 1380 003c 2f05 d3bc f2c2 003d
000001c0: 9eb9 6d3c 5c01 8bbc 641a aa3b 9920 31bd
000001d0: 906f ab3c 8486 2abd 1b56 e2bc b813 833b
000001e0: 0f7e 25bd aea1 143c dca9 c6bc cb5b 253d
000001f0: 6456 b6bb 4962 6bbc a58c bd3b 15de 18bb
00000200: 4fc8 66bd 7f59 a2bc c08f d13c 87a7 42bd
00000210: ea6d a53d ea7a 053c 424c 2e3d 1e44 0d3d
00000220: 0faa 50bc f1ad 443b 4d17 8ebb ebb6 48bc
00000230: c7bc 0f3d 6e30 2d3c 5bf9 b93c fbc0 19bd
00000240: 4078 58bd 26ef 083d 3391 a83b f8a5 643b
00000250: d145 aa3c 34bf 093d 92df 4a3d ae6c f43c
00000260: a889 6d3c f9c3 82bc 4aee e93a cb08 863d
00000270: 3f55 43bc a8f1 e63c 3146 d23a 9363 00bc
00000280: a9e9 f93b e69a 2e3b 0de7 2bbd de96 7bbd
00000290: 70bc a1bc 4e94 073b 32d8 1a3d e2cd 6fbc
000002a0: f794 f7bc 80de 933a 29bb 613c e557 04bd
000002b0: 3dc7 9bbc aa8e 91bc 90e5 87bd 8568 d8bc
000002c0: ae32 78bc 3ed3 113d 7719 333d 6f80 f93b
000002d0: f97d 8f39 72c6 63bd 5788 edbb e891 293c
000002e0: 8d23 2b3d b3b4 d2bc 5a1f ebbc a05c 6fbd
000002f0: d46a a23c 5e1c 2b3c b4b8 b13d 758d 423d
00000300: 7236 273d a625 993b 2f4c 82bc c236 2fbd
00000310: 26f5 05bd 1db9 c7bc b9de 7cbc 287b bdbd
00000320: 8e5c 083c 8afa 3fbd 8313 543c 7c86 74bd
00000330: cf9e 36bd 2068 923c 0f5f 4bbd ed82 d73b
00000340: 9584 9b3b 8089 ffbc b887 a63c ac5f a33b
00000350: 8105 c43c 83f7 34bc bf81 62bd c7d4 12bd
00000360: 72e0 6e3c 85be 25bd d589 5fbc 903c 0ebd
00000370: 3c61 07bd 9bf9 3fbc 5358 05bc d805 cebc
00000380: b369 703c 8666 cc3c 59e0 9d3b 0e69 aa3c
00000390: 90d5 143c b7d1 7a3c 85d5 95bc d240 55bc
000003a0: 70aa d83a b13a c1b9 545c 5d3c 5f58 99bb
000003b0: 8101 d13c ff83 443c 0a16 ea3b bf20 20bb
000003c0: a5ec 85bd fed7 e83b 40a5 27bc 2c9f 0c3c
000003d0: 50d6 4f3d 6017 d63c 7b7a 0cbc b591 eb3c
000003e0: 83b4 34bc fb33 753d 1ab9 b33c 22ef eebb
000003f0: e8bc 28bc 0a77 18bd 35a2 3ebc 95b2 15bd

action_model._continuous_distribution.mu.bias f4 [2]
0.014841003 0.022216037
00000000: ae27 733c 68fe b53c

onnx::Div_51 f4 [182]
0.42606762 0.24747679 0.4301982 0.25062588 0.42387912 0.2451376 0.4352123 0.25417158
0.42129776 0.24660839 0.4402698 0.25943044 0.42318025 0.24728297 0.44699082 0.2639524
0.4237783 0.24857613 0.44860578 0.2684883 0.42784995 0.25122023 0.44996813 0.27204117
0.43440253 0.25484988 0.45242617 0.2737604 0.4422442 0.25946692 0.45683992 0.27461284
0.4502349 0.2643223 0.46081033 0.275158 0.45804727 0.27037922 0.46567863 0.27537328
0.46757478 0.27731887 0.46948466 0.27487347 0.47679347 0.28213856 0.47324464 0.2733782
0.4837684 0.28475487 0.47751465 0.27059403 0.48926172 0.28468713 0.48267618 0.2673251
0.493073 0.28211766 0.48763034 0.26393333 0.49503824 0.2777132 0.49309647 0.26045057
0.49716964 0.27233508 0.4971321 0.2590534 0.49891913 0.2639971 0.49966758 0.25881475
0.49985176 0.2555524 0.499759 0.2573782 0.4997031 0.2478408 0.49741852 0.2540037
0.49807915 0.24077863 0.4942628 0.25016022 0.4945926 0.23515917 0.4905151 0.24507326
0.4907308 0.2313406 0.48653316 0.23977451 0.48579955 0.2305619 0.48258588 0.23377271
0.47825405 0.2306308 0.47658762 0.22680905 0.4711674 0.22892255 0.46641582 0.21908966
0.46053615 0.22477657 0.45327115 0.21027148 0.44869757 0.21715939 0.43759474 0.19992977
0.43707943 0.20700017 0.4216117 0.18821913 0.42654127 0.1948873 0.40794018 0.17449927
0.40867478 0.18121664 0.38998437 0.15870157 0.3908943 0.16539524 0.36913866 0.1419198
0.3768229 0.14787206 0.3479678 0.12497569 0.35762942 0.12899166 0.31500122 0.10837344
0.33322152 0.10803422 0.29054254 0.09129812 0.31107125 0.086436614 0.26429996 0.073810264
0.27544442 0.06406447 0.23922354 0.055580106 0.22509623 0.041227598 0.19353235 0.03863801
0.15114197 0.020397693 0.14668198 0.023892356 0.054775998 0.008003525 0.09469805 0.012521072
0.021746244 0.0051796525 0.043921005 0.0070082587 0.0054180156 0.005070955 0.020285692 0.0053003663
0.0056038303 0.005181217 0.010186003 0.004686659 0.0054806643 0.005120794 0.005418139 0.004976006
0.0056038406 0.005200506 0.0055425977 0.0051291944 0.0055425977 0.0051291944
00000000: 8925 da3e 8e6a 7d3e f042 dc3e 0952 803e
00000010: af06 d93e 5a05 7b3e 26d4 de3e c722 823e
00000020: 57b4 d73e e986 7c3e 0b6b e13e 11d4 843e
00000030: 15ab d83e bf37 7d3e fbdb e43e c524 873e
00000040: 78f9 d83e be8a 7e3e a8af e53e 4c77 893e
00000050: 260f db3e f09f 803e 3962 e63e fb48 8b3e
00000060: 026a de3e af7b 823e 67a4 e73e 532a 8c3e
00000070: d56d e23e d9d8 843e ece6 e93e 0e9a 8c3e
00000080: 3085 e63e 4155 873e 55ef eb3e 82e1 8c3e
00000090: 2c85 ea3e 256f 8a3e 6e6d ee3e bafd 8c3e
000000a0: f665 ef3e bdfc 8d3e 4b60 f03e 37bc 8c3e
000000b0: 461e f43e 7774 903e 1f4d f23e 3af8 8b3e
000000c0: 7eb0 f73e 64cb 913e cd7c f43e 4d8b 8a3e
000000d0: 8380 fa3e 83c2 913e 5521 f73e d6de 883e
000000e0: 1074 fc3e ba71 903e afaa f93e 4522 873e
000000f0: a775 fd3e 6d30 8e3e 2477 fc3e c759 853e
00000100: 058d fe3e 816f 8b3e 1988 fe3e a6a2 843e
00000110: 5472 ff3e a12a 873e 6ed4 ff3e 5e83 843e
00000120: 92ec ff3e c4d7 823e 69e0 ff3e 13c7 833e
00000130: 16d9 ff3e fbc9 7d3e a4ad fe3e c60c 823e
00000140: 3b04 ff3e ac8e 763e 0410 fd3e 0015 803e
00000150: 3e3b fd3e 91cd 703e cc24 fb3e 7cf4 7a3e
00000160: 1141 fb3e 8de4 6c3e e01a f93e 7387 753e
00000170: b8ba f83e 6b18 6c3e 7f15 f73e 1d62 6f3e
00000180: b7dd f43e 7b2a 6c3e 4b03 f43e a240 683e
00000190: da3c f13e ac6a 6a3e 0ece ee3e 0a59 603e
000001a0: 65cb eb3e d42b 663e 2813 e83e 6851 573e
000001b0: b0bb e53e 085f 5e3e 6b0c e03e 64ba 4c3e
000001c0: e0c8 df3e daf7 533e 7ddd d73e 84bc 403e
000001d0: 9e63 da3e 8990 473e 89dd d03e f0af 323e
000001e0: d23d d13e db90 393e 08ac c73e aa82 223e
000001f0: 4c23 c83e 5f5d 293e beff bc3e 6d53 113e
00000200: eeee c03e c66b 173e d628 b23e 41f3 ff3d
00000210: 341b b73e 6416 043e d747 a13e e5f2 dd3d
00000220: 039c aa3e 0c41 dd3d fec1 943e 82fa ba3d
00000230: bb44 9f3e ae05 b13d 5352 873e d629 973d
00000240: 0d07 8d3e 3c34 833d 04f7 743e f7a7 633d
00000250: a07f 663e 45de 283d 582d 463e e442 1e3d
00000260: f6c4 1a3e 1019 a73c cd33 163e e7b9 c33c
00000270: cc5c 603d 3821 033c 0df1 c13d 2f25 4d3c
00000280: 2e25 b23c 13ba a93b 83e6 333d 89a5 e53b
00000290: 9c89 b13b 412a a63b 2e2e a63c b2ae ad3b
000002a0: 56a0 b73b 33c7 a93b 31e3 263c 8c92 993b
000002b0: 2597 b33b 55cc a73b a58a b13b c40d a33b
000002c0: 6ca0 b73b 0269 aa3b ae9e b53b cd12 a83b
000002d0: ae9e b53b cd12 a83b
