Assets/Models/Park90RC.onnx (onnx, 119662 bytes, 9 tensors)

network_body.observation_encoder.processors.0.normalizer.running_mean f4 [90]
00000000: f13a 003f b4d1 123f 16ce 2c3f 6e2d 5b3f
00000010: 9155 763f 1499 7a3f 6179 7c3f baa4 7d3f
00000020: f376 7e3f 8915 7f3f 3884 7f3f 3eb7 7f3f
00000030: 78d9 7f3f c3e2 7f3f 7fe9 7f3f b4f0 7f3f
00000040: f7f7 7f3f eafb 7f3f 7ffd 7f3f 02fe 7f3f
00000050: f9fd 7f3f 49fe 7f3f 54fe 7f3f 54fe 7f3f
00000060: 54fe 7f3f 54fe 7f3f 10fe 7f3f 10fe 7f3f
00000070: 08fe 7f3f f5fd 7f3f edfd 7f3f ebfd 7f3f
00000080: cafd 7f3f c8fd 7f3f c8fd 7f3f a6fd 7f3f
00000090: a3fd 7f3f 67fd 7f3f dbfb 7f3f b2f9 7f3f
000000a0: 3ff8 7f3f 31f6 7f3f 69f1 7f3f 03ea 7f3f
000000b0: e9d9 7f3f 1abe 7f3f 4be7 e63e ecd5 d43e
000000c0: 8e84 c73e 5c96 bd3e e247 b53e 740e ae3e
000000d0: 2c02 a73e 14e4 9f3e c2ec 983e c74a 933e
000000e0: 0592 8d3e 6d86 873e de72 823e cd3e 7e3e
000000f0: 723d 7b3e 40f4 7f3e 527a 823e aa09 813e
00000100: c149 7c3e 851a 783e a7c3 743e 4fe4 713e
00000110: c50f 733e 3454 773e b972 7e3e 7b82 843e
00000120: 2546 8c3e 2b5f 953e cdef 9d3e c538 a63e
00000130: a12b b03e 15f1 bc3e 3706 ce3e a72c e53e
00000140: bb83 023f 30cd 183f 2aca 393f b7ea 643f
00000150: d957 7a3f ba9b 7d3f 5d84 7e3f eaf3 7e3f
00000160: 8040 7f3f dd86 7f3f
0.5008994 0.5735123 0.6750196 0.85616195 0.96224314 0.9788983 0.9862271 0.9907948
0.9940025 0.99642235 0.99811125 0.9988898 0.99941206 0.99955386 0.9996566 0.9997666
0.9998774 0.99993765 0.9999618 0.9999696 0.99996907 0.99997383 0.9999745 0.9999745
0.9999745 0.9999745 0.99997044 0.99997044 0.99996996 0.9999688 0.99996835 0.99996823
0.99996626 0.99996614 0.99996614 0.9999641 0.99996394 0.99996036 0.99993676 0.9999038
0.9998817 0.99985033 0.9997774 0.9996645 0.9994188 0.99899447 0.45098338 0.4156946
0.3896832 0.37028778 0.35406405 0.33995402 0.32618845 0.31228697 0.29868132 0.28767988
0.27650467 0.26469746 0.25478262 0.24828644 0.24535158 0.24995518 0.25483948 0.25202686
0.2463751 0.24228866 0.2390276 0.23622249 0.23736484 0.24153215 0.2484845 0.258808
0.27397266 0.2917417 0.30847016 0.32465187 0.34408286 0.3690268 0.40239117 0.4476063
0.50982255 0.5968809 0.725741 0.89420646 0.97790295 0.99065745 0.9942072 0.99590933
0.99707794 0.9981516

network_body._body_endoder.seq_layers.0.weight f4 [128, 90]
00000000: be15 dabc dfa0 3ebe 076c 92bd e9b9 9abd
00000010: 9ad3 3c3e b5f9 15be b5cd 47bd 275b 68be
00000020: 46f9 efba f745 88be f8cb 833e 4401 1cbd
00000030: 9506 013e e79c e6bd 988c 78bc 5da6 8cbe
00000040: 53e2 ef3c ce73 bebd 27c7 1bbe 3648 b93c
00000050: 13fe 27bc bb92 ee3c 8538 a03d 8c7d 07bd
00000060: af3e f03c b48f 03bd 7ba4 0ebe f144 d0bd
00000070: 08d7 04be 31f2 b83d e4f0 023e 9339 043d
00000080: 9c96 43bd 67b7 2dbe c3b1 2f39 1c53 8ebe
00000090: 88dd f6bc aa50 193c 3ab4 83bb d84c 66bd
000000a0: 7bff b0bd de80 113e a29e b73d 4645 d53d
000000b0: d5f1 bcbc cd47 2bbe b9d4 96bd 2a09 0abd
000000c0: 1f0c b3bd e0e9 d6bd cad1 9abd 797a dabd
000000d0: b301 9fbc 2942 863b f0a1 6a3e f584 283e
000000e0: c6a8 843e 4df7 7c3d 608b 863e a539 6abe
000000f0: 2c06 08be 9cfe 19bc 7218 73bd 6488 883d
00000100: 6a19 6dbd 2cea 943d e0dc 52be 0e83 64be
00000110: 978f c33c f96f 14bd 3eb0 55bd d81f 01bc
00000120: 0acf d9bd 4835 06bc cbe1 b93d 99ec 7d3d
00000130: d475 3fbd 0baf aa3e f2a3 f3bd c271 fdbd
00000140: 988e ef3c 7b01 18bd 916b 123b 14f7 c4bc
00000150: 111b a7bc fc2f a9bc b5b3 c7bd cda0 3b3d
00000160: ec38 55bd d539 303d ebe1 49bd 82c7 8dbe
00000170: 7093 32be a1ef a3bd dcac cabb c400 74bc
00000180: ac90 7dbd db14 b9bd dc2b 64be b0c4 80bd
00000190: 8352 75bd ec70 3cbe 1dec 833d 4eac d4bd
000001a0: 461f a43d f8dd c8bc e083 2abc bb43 bfbc
000001b0: adad 1fbb 5703 1e3c 50e6 cd3c cb7e d23d
000001c0: 0795 8d3d c5c7 553e ad5f 97be 72a7 f2bc
000001d0: 5d66 6cbe dca4 89bc 952f 903c cadf eabd
000001e0: e794 3bbd 5ffe 473d aa5e 253e 1321 93bd
000001f0: ba9d 5bbd e1a4 15be 0002 0bbd a0cf 10be
00000200: f394 033d 89e6 8c3d 97d6 f8bd 1a93 5e3d
00000210: b69a 103e 59ba c03d 7798 ab3d f9f5 843d
00000220: 3eac 23be 5016 163d 49ac 8cbd f6a3 43bd
00000230: 82dc 083e 2af3 0c3e 2496 2f3e e75a 35be
00000240: fbe3 41bd 8fbd 003e 3864 c1bd 1cf8 75bd
00000250: ee6d 7a3d cd43 92bc e815 10bd 49dc 86bd
00000260: bc9a e3bd b0e1 8c3d a03d bb3d c11a a6bd
00000270: b746 793c 2fdd c1bd 50a9 0c3d c256 b5bc
00000280: b77e a83c 4dab 913a b73e 773c a880 24be
00000290: 3597 cebd d42e fe3d 30fb e83d 7753 a53b
000002a0: 275d 02be 9cc2 263d dbb5 70bb 0609 00be
000002b0: dc3a 0d3e 860c 17be c7ed 39bd 2a68 043e
000002c0: a4e9 26be 767a b73c 2935 0e3e 1902 293c
000002d0: db03 0d3e 2111 58bd c275 e73d de5c 2e3d
000002e0: 8f5f 373e adbc 353e c9f2 543e 5872 933d
000002f0: d3d7 4d3e 91fa 853e 46f9 40be 5fee af3d
00000300: 6e67 cc3d d063 f53d bef8 c93d 41ee f43c
00000310: 543c 75be 5774 593d 67f5 463e 1387 573e
00000320: 6ca3 303e 65ea d03c ab50 babc 94cb 043e
00000330: 6f00 8b3d 1bf8 6a3e 7c92 a53d 68bd d63c
00000340: c9c0 c0bd 1961 723e 2412 453d 9506 243d
00000350: 31f2 d2bd 3fc2 6e3e 69fe d3bc e147 383c
00000360: bbcd d93b 35a4 183e bbc0 2b3e 22e8 d23d
00000370: 5598 d63d e314 0b3e 04e2 e73d ef62 87bc
00000380: 4849 3c3e e233 2f3e 754a 71bc ea7a 003e
00000390: 4166 adbd 2873 833e 4807 d13d 7a7d b3bd
000003a0: 111e 5a3c 4d60 c43d 0bb7 773d 6ae1 3fbc
000003b0: 15bc 02be 03a3 95bd e920 79bd 856b 76bd
000003c0: 7293 f03c 3d08 9c3d ac5c 85bc 2138 c33d
000003d0: 93ca 783d 5f9e 7d3b 3dca 6c3d b13c bf3c
000003e0: bc9e dc3d b7cb 9f3c d162 9c3c 2aa3 8e3d
000003f0: e25e 40bc 32e8 a2bd 50dd e9bc d1fc f43a
-0.026621696 -0.18616055 -0.07149511 -0.07554991 0.18440095 -0.14646037 -0.048780162 -0.22691022
-0.0018308542 -0.2661588 0.25741553 -0.038087144 0.12600167 -0.112603955 -0.015170239 -0.27470675
0.029282724 -0.09299432 -0.1521269 0.02261744 -0.010253447 0.0291227 0.0782328 -0.033078715
0.029326765 -0.032119468 -0.13929932 -0.101693995 -0.12972653 0.09030569 0.12787205 0.03228147
-0.047751054 -0.16964494 0.00016755522 -0.27797782 -0.030134931 0.009357611 -0.0040192874 -0.056225628
-0.08642479 0.14209315 0.08965804 0.104136035 -0.023064533 -0.16726609 -0.073647924 -0.033700146
-0.08742546 -0.10493827 -0.07559545 -0.10667891 -0.01940999 0.0040972424 0.22913337 0.16456969
0.25910014 0.061759282 0.2627821 -0.22873552 -0.13283604 -0.0093990825 -0.059349485 0.066666394
-0.057885565 0.07271227 -0.2059207 -0.22315618 0.02387218 -0.036239598 -0.05217003 -0.007881127
-0.10635193 -0.008191414 0.0907627 0.061993215 -0.04674323 0.33336672 -0.118965045 -0.12375213
0.029242799 -0.037110787 0.0022341947 -0.024043597 -0.020398648 -0.020652764 -0.09751073 0.04580765
-0.052056238 0.043023903 -0.049287718 -0.27691275 -0.17439055 -0.0800469 -0.006185157 -0.014892761
-0.061905548 -0.09037181 -0.22282356 -0.06287515 -0.059893142 -0.18402451 0.064415194 -0.10384427
0.080137774 -0.024519905 -0.010407418 -0.023347726 -0.0024364993 0.009644351 0.025134236 0.1027809
0.0691319 0.20876987 -0.29565182 -0.02962086 -0.23085923 -0.016802244 0.017600814 -0.114684656
-0.0457963 0.04882657 0.16149393 -0.07184043 -0.053617217 -0.14613678 -0.033937454 -0.14141703
0.03212447 0.068799086 -0.12150305 0.054339506 0.14121518 0.09410543 0.0837869 0.06492228
-0.15983674 0.036642373 -0.06868798 -0.047763787 0.13365367 0.13764635 0.17147118 -0.17710458
-0.04733656 0.12572311 -0.09442943 -0.06005107 0.061139993 -0.017854596 -0.03517714 -0.06584985
-0.111134976 0.06878984 0.091426134 -0.08110572 0.015214614 -0.094660155 0.034341156 -0.022136096
0.020568235 0.0011113674 0.015090636 -0.16064703 -0.10087434 0.124112755 0.11376035 0.00504535
-0.12730847 0.040712938 -0.0036729488 -0.12503442 0.13791984 -0.14750871 -0.045392778 0.1293036
-0.16300064 0.022397261 0.13887466 0.0103154415 0.13771002 -0.05275071 0.113017574 0.042569034
0.17907546 0.17747755 0.2079574 0.07199544 0.20101862 0.2616773 -0.1884509 0.085903876
0.09980665 0.11981928 0.09861897 0.029898765 -0.23948795 0.053089466 0.19429551 0.2104762
0.1724984 0.025502393 -0.022743544 0.12968284 0.06787192 0.22946207 0.0808458 0.026213363
-0.09411771 0.23669852 0.048113003 0.04004534 -0.103001006 0.23316287 -0.025878148 0.011247606
0.0066468394 0.1490639 0.1677274 0.10298182 0.10478274 0.13582186 0.11322406 -0.016526667
0.1838733 0.17109635 -0.014727225 0.12546888 -0.08466769 0.25673795 0.10206467 -0.08764167
0.013312832 0.095886804 0.060477298 -0.011711458 -0.1276706 -0.07306483 -0.0608224 -0.060161132
0.029367182 0.07618759 -0.016279541 0.0953219 0.060740065 0.0038699133 0.057810057 0.02334437
0.10772464 0.019506318 0.019090088 0.06964715 -0.011741372 -0.07954444 -0.028547913 0.0018691068

network_body._body_endoder.seq_layers.0.bias f4 [128]
00000000: e14c 63bd 339d 0fbd 3086 663d b709 973d
00000010: eff1 323d 1b77 343c f464 13bb be53 babd
00000020: f159 cf3c 2f05 bfbc 72d5 13bc dc31 aebd
00000030: 5b96 d2bb 3f13 013e fb4a 75bd 205b 1ebd
00000040: 26d4 5dbb ff65 1ebc adbb 23bd c0b5 bb3d
00000050: 1ea2 79bc 1ffe b93d 1fcc 9fbc 24c7 143d
00000060: 48f3 bfbc 2cdf 24bc f295 9a3d 675b 8abd
00000070: e4f3 f7bb f153 55bd a6ef d4bc d4a8 af3c
00000080: 88ba 16bd 09ee 9e3d 0ae4 cabc 2b8c 57bc
00000090: c674 3f3d 3526 7d3c 94ea 47ba abf9 7abd
000000a0: a581 9b3d c1b4 0e3e e516 b73c e664 c83d
000000b0: c9a1 bcbc 4afd 043e 4ce5 4bbd fb25 c8bc
000000c0: 994f b03c 9f3b 37b9 4867 a5bd 4abe abbc
000000d0: f19a a73d 480e 68bd a35b 3f3d 9f00 883c
000000e0: 3b2e 833d d070 d93d 017b 38bd 36da 8ebd
000000f0: 1d21 9d3d 6569 bfbc be8c 253c 35f3 0d3e
00000100: 1da2 80bb 8918 0a3d e932 46bd c32c e43d
00000110: 86ba d8bb 7329 32bd 74c0 05bd 9f16 7bbd
00000120: eb9a e63d ba79 d73d 329c d23c 59dd a13d
00000130: 89c6 1cbc ee97 9cbd 458f aabd cda1 fe3c
00000140: 1def 023d 32ae 993b cc55 1a3d 8010 febc
00000150: 0223 953c 1aa8 f23b ff0e 3b3d f912 d63d
00000160: f0e7 76bd 9f6d 12bd 351c d23d 552a d9bd
00000170: c83f d0bd 941c 83bc 16c8 c43c c9d8 a8bd
00000180: 224c 8dbc 55f8 5abd 2eb6 843d 8de9 b23c
00000190: 791e 863d 250a c83c fca1 0bbd 5903 5dbd
000001a0: a434 ec3d ad40 533d 65e0 c4bd aed1 3bbd
000001b0: 6f7a d93d ee3f 0f3e ea96 5c3d 742b a33d
000001c0: 8012 f8bc 0f2d 11bd 9aab f53b 69f4 9abc
000001d0: 80cd 473d d872 b13d f349 68bd 8f42 5e3d
000001e0: 7a9f c0bd d3d3 603c 7e2e 8ebd 4d30 5e3d
000001f0: b8d4 2eb8 a537 8bbd 690e 3fbd 387b 733c
-0.05549324 -0.035062026 0.056280315 0.073749 0.043687757 0.011014725 -0.0022490593 -0.09098004
0.025311442 -0.023317901 -0.009023057 -0.08505604 -0.006426615 0.12604998 -0.05988596 -0.038661122
-0.0033848374 -0.009667872 -0.039973903 0.091655254 -0.015236406 0.09081673 -0.019506512 0.036322728
-0.023431435 -0.010062974 0.07548131 -0.06755715 -0.007566916 -0.052082006 -0.02599318 0.021442808
-0.036798984 0.07760245 -0.02476694 -0.013155977 0.046742223 0.015451004 -0.00076262024 -0.06127326
0.07593087 0.1393614 0.022349784 0.0978487 -0.023026364 0.12987247 -0.04977922 -0.024432173
0.02152233 -0.0001747445 -0.0807634 -0.02096476 0.081838496 -0.056654245 0.04671825 0.016601859
0.06405302 0.106172204 -0.04503918 -0.06975214 0.076723315 -0.023365686 0.010104356 0.13862307
-0.0039255754 0.033714805 -0.048388395 0.1114135 -0.006614032 -0.04349656 -0.03265424 -0.06130087
0.11260017 0.105212644 0.025709245 0.07903547 -0.009568819 -0.07646166 -0.08328108 0.031083012
0.031966317 0.004689955 0.03767948 -0.031013727 0.01820517 0.007405293 0.0456686 0.104528375
-0.060279787 -0.035749074 0.10259286 -0.10603777 -0.10168415 -0.016004838 0.02402119 -0.082444735
-0.017248217 -0.053459484 0.064800605 0.021839881 0.06548781 0.0244189 -0.034090027 -0.05395827
0.11533478 0.05157535 -0.09613112 -0.045854263 0.106190555 0.13989231 0.05385486 0.079672724
-0.030282259 -0.03544336 0.007497263 -0.018915372 0.048779964 0.08664483 -0.05671115 0.054262694
-0.09405418 0.013722378 -0.069424614 0.054245282 -4.1682943e-05 -0.06797723 -0.046644602 0.014860921

network_body._body_endoder.seq_layers.2.weight f4 [128, 128]
00000000: f89a da3d df4a dcbc bb5f bb3d 79c8 17be
00000010: 5930 223d 7049 3e3d 7a7a 403e 9229 6e3d
00000020: dbf9 9ebd e281 563d 32be 9b3d 739e 3fbe
00000030: 248b ccbd aad5 ae3d 9ca6 48be 33b8 32be
00000040: 1647 16bd adbf 21bd c128 8b3c 4f4c 153d
00000050: cf62 a43e bdf1 263e 6444 41be 687b d73c
00000060: c2bc 8f3d 5816 713c ebbc c8bb 28fe 30bd
00000070: 2818 d0bd 51e8 103d 1d71 f4bd 9574 bc3d
00000080: b23d 2c3d 9758 b23b 7070 1e3e f61d e3bd
00000090: b54d b13d dca5 ff3d cb40 3fbe f941 b6bd
000000a0: 498b dfbb f058 e2bc 0857 6ebc 3b8e 933d
000000b0: 1458 d73c 1d86 0b3d 6429 cfbd b506 cd3d
000000c0: 7854 2b3d d6ef dfbd 5098 2cbd a42d 20be
000000d0: 19b3 05bb ac87 58bd 9fb4 adbd 4856 0a3e
000000e0: 12df 153e c539 c93d 7ab1 e33b 351d c2bc
000000f0: 8777 2d3c 7d55 3a3e 2b5a 7a3d 1a0a 523e
00000100: fd43 41bb 4a1d 80bc 37d2 0abe d2e1 423e
00000110: d892 25be 6037 02be 7c92 413e db9b 9bbc
00000120: 8730 253d 8c16 603c 0eb0 243d d7f3 4f3c
00000130: 5823 71bd e8c6 a6bd 0c7b 6bbe 92b9 67bd
00000140: b27d 1f3e 345d 593c 4084 8e3d 19fd 72bc
00000150: dafc f53d 1f61 c63c 463d 05be 24c4 0a3e
00000160: cbad 0abe 0e67 4dbe 0f61 9d3d 40d2 5bbe
00000170: 0c7b 95be 8a73 c0bd e79e a1bd baae 92bd
00000180: f294 e6bb 8648 223e c80f aa3c 3dbe f6bc
00000190: e98d 973d 6672 acbd 2167 90bd 7b9c f7bd
000001a0: 04b6 9ebc 9ef7 053e 013b aabd 7378 773d
000001b0: c761 393e 4489 d03d cdf3 3ebd 0aeb 113e
000001c0: e047 acbe 9d4c 043b 9b75 a63d a844 dbbd
000001d0: fdcf 5a3e 1828 343e 3b63 ed3d 91ef d4bd
000001e0: 9270 97be c069 e2bd 5853 f4bd f59a 91bd
000001f0: d299 883d deab 06be a1bc 3fbd ee1d 253d
00000200: 4b6c e6bd 84e2 03bd 0330 853c 23bc fabb
00000210: 6bbd e93c e457 6e3d d0a7 d4bd 154d ce3d
00000220: d174 a1bd eb04 173e 1e9e 0ebd daf8 6a3e
00000230: fab0 56bd 43e5 f7bd d5ad b8bd 3254 8dbd
00000240: cff0 243d b9fd 66bd 47b3 493e 5f13 bebc
00000250: 350e a93d 7e7d c53d 7f16 0e3e 88ae 1bbd
00000260: 53ea d9bc d05f 36be 5b3b d63c f7f5 e13d
00000270: 265c 963b f009 02bd 2906 c73d d232 ea3d
00000280: 97af f23b 81f3 2ebe d466 a83d 5ab1 443d
00000290: 8493 073d 86ca 903b d5c5 a93d cc99 ae3d
000002a0: fa00 f53c d04d 363d 3853 813d 3a38 7bbd
000002b0: 2ab2 d23d 9b1f c5bd ebe6 ffbd 9f35 debd
000002c0: f148 71be e064 69be 5b7f 6ebd ab5d 78be
000002d0: d761 043b b080 4fbe 1ffd 33be 1b04 56be
000002e0: 71a0 20bd e488 d5bd eb46 14be 8ebd f8bd
000002f0: 9437 89bd 8cab fd3d 81a2 bf3d 190a 8d3d
00000300: f0fb 72be 2d66 083e 6647 db3c 22f6 fcbd
00000310: 9820 cabc 7eb1 d03c 071a 5e3d 7ef4 1fbc
00000320: 6d8f 0a3d 867b b9bc d6ed 8ebb c675 4d3c
00000330: 28d2 4fbe d166 dcbd 0b4b c23d 252c e53d
00000340: e3a2 9d3c d43c 5fbd d662 b33d f5be d0bc
00000350: 9e14 bcbd 0067 ddbd eae9 2a3c f09b fa3c
00000360: 7545 07ba 99a5 f23c c57d b1bc 92ef 3dbd
00000370: b74d b2bd cf4a 4d3d b34e 0abe b6d0 863d
00000380: 2b7c 58bd 5f1f 053e 2a63 0ebe d32f ebbd
00000390: 157c c5bc cb7a 7dbd 470a ddbc 85db 093d
000003a0: dd93 5a3b 6df4 edbd 558a 473d 0825 053d
000003b0: 1ddc 4b3d bc92 933d 72c3 44bd 1ff9 f83d
000003c0: bd04 463e b676 8b3d bec7 c13c b0f3 5a3e
000003d0: 5c77 c13a 5eee 063e dc7e 38bd 510b f5bb
000003e0: 0a5f 373e 679a 303d 8d63 353e d5bf 8b3d
000003f0: ddd7 be3d 65dc cb3b 2921 453d 30ae 633d
0.10674089 -0.02689117 0.091491185 -0.14822568 0.03959689 0.046456754 0.18796721 0.058145113
-0.077625 0.05236996 0.07604636 -0.18712787 -0.099874765 0.08536847 -0.19594806 -0.17453079
-0.036688887 -0.039489437 0.016987206 0.036449727 0.32106635 0.16303153 -0.18873745 0.026303962
0.070184246 0.0147148 -0.0061260364 -0.043211132 -0.101608574 0.035377804 -0.11935637 0.09201924
0.042051025 0.0054426896 0.15472579 -0.11089699 0.086573996 0.12482807 -0.1867706 -0.08899302
-0.006822024 -0.0276303 -0.014547117 0.07204863 0.026287116 0.034063447 -0.101153165 0.10011045
0.041828603 -0.10934417 -0.042137444 -0.1564241 -0.002040094 -0.05286376 -0.08481716 0.13509476
0.14635876 0.09825472 0.006948647 -0.023695568 0.01058758 0.18196674 0.061121147 0.20511666
-0.0029489987 -0.015638966 -0.13556753 0.19031456 -0.16169298 -0.12716436 0.18903536 -0.018995216
0.040329482 0.013677251 0.04020696 0.012692413 -0.058871597 -0.08143407 -0.22996157 -0.056573458
0.15575293 0.01326685 0.069588184 -0.014830851 0.12011118 0.024216233 -0.13011655 0.13551384
-0.1354286 -0.20058843 0.07684528 -0.21466923 -0.2919544 -0.09397037 -0.07891636 -0.07162233
-0.0070367986 0.15847978 0.020759478 -0.03012001 0.07400114 -0.08420257 -0.0705092 -0.12090393
-0.019373901 0.1308274 -0.08312035 0.060417604 0.18103705 0.10182431 -0.046619225 0.14249817
-0.33648586 0.0020187267 0.081279 -0.107064545 0.21368404 0.1759342 0.11591192 -0.10397256
-0.29578072 -0.110553265 -0.11929959 -0.07109634 0.06669964 -0.131515 -0.04681075 0.040311746
-0.11251124 -0.032198444 0.016258245 -0.007651822 0.028532704 0.058189288 -0.1038357 0.10073296
-0.07883609 0.1474797 -0.03481876 0.22946492 -0.05241487 -0.12104275 -0.09017531 -0.069008246
0.040268715 -0.056394313 0.19697295 -0.023202596 0.08254663 0.09643076 0.13875769 -0.038008243
-0.026600992 -0.17809987 0.02615135 0.11033242 0.0045886217 -0.03174776 0.09717972 0.114354745
0.007406186 -0.17085077 0.08222738 0.048020698 0.033099666 0.004418674 0.082896866 0.08525428
0.029907692 0.0445078 0.06314701 -0.06133292 0.10287888 -0.09625169 -0.12495216 -0.10850071
-0.23562981 -0.22792387 -0.058226924 -0.24254481 0.0020199919 -0.20263934 -0.17577027 -0.20900004
-0.03921551 -0.104265004 -0.14480178 -0.1214553 -0.06700054 0.123862356 0.09357167 0.068866916
-0.23728919 0.13320227 0.026767444 -0.123516336 -0.024673745 0.02547526 0.05422404 -0.009762881
0.033828188 -0.022641908 -0.0043618483 0.012540286 -0.20295012 -0.10761798 0.094869696 0.111900605
0.01924271 -0.05450137 0.08759086 -0.02548168 -0.0918362 -0.10810661 0.010431746 0.030591935
-0.0005160191 0.029619979 -0.021666417 -0.04637105 -0.08706229 0.05012017 -0.13506584 0.06582777
-0.05285279 0.13000248 -0.13905016 -0.11483731 -0.024107018 -0.061884683 -0.02698244 0.033656616
0.0033352294 -0.11618886 0.048715908 0.03250602 0.049770463 0.07205722 -0.048037954 0.12156891
0.19337745 0.06809752 0.023654815 0.21382022 0.0014760303 0.13176867 -0.045042858 -0.0074781557
0.17907348 0.043116 0.17713757 0.068236984 0.093185164 0.0062213414 0.048127327 0.05558604

network_body._body_endoder.seq_layers.2.bias f4 [128]
00000000: 3534 da3d ba01 d63c a5d6 22bd 4940 04bd
00000010: de09 35b9 9d9f c53d d290 a5bc 0f52 98bb
00000020: ae7a 04bd bf8d 113b dd12 1dbd 1370 7e3d
00000030: 1cf9 3abd 8d70 3cbd 1a08 5dbd 9315 0e3d
00000040: 1965 00bc 1b88 d73b 1321 b5bd 2eac 553c
00000050: 4e53 c73d a790 433d 9f8a 173d 7d54 7b3d
00000060: 4f3d fa3c 9a03 963d ea37 b73b ec58 87bd
00000070: b0fd 323b b7e8 21bd 6600 de3c 1bf0 91bb
00000080: 1fe5 c33d 33e3 aebd 5abb 663d bc74 703d
00000090: 0b7d 203d ab40 5f3c b8ca d63d 2506 0dbb
000000a0: df81 353c 283c 863d 08ae 893c a67e 8d3b
000000b0: a2e0 923d cdaf 0ebd 016b 943d 79ad fd3c
000000c0: 8158 07bd 495e 863d a872 a3bc e39e 723c
000000d0: 66a0 b7bd e3ee 16bd f429 223d f2ea a93c
000000e0: b97e 61bd f817 a73d 8846 bc3d 6cae 74bd
000000f0: 1a52 973c 716f a83d 8b15 803d 9e05 febc
00000100: 4967 913c f65f 1fba 3f7c aa3d a4ab d7bc
00000110: 8262 b83d 5e5c 60bd a645 6bbc 05d9 a2bc
00000120: accb 03bd 8c7a 5e3d 766d f33c b001 a03c
00000130: b8cc b7bb a516 353c f11f 353c d783 3ebd
00000140: fd81 b9bb 999e 5b3d 201d cc3c a0fe 5d3c
00000150: 4c8c 18bd bf3e 49bc ce64 c63c 8f0f 063b
00000160: 013d 04ba a048 6f3d f35f f93d 44d3 a5ba
00000170: 968c 58bc f004 313c f983 243d d955 6fbd
00000180: 7273 d4bc 79bb ffbc 1627 9f3d 88fd f23b
00000190: dd99 c53d 03f1 783c da76 d53c df76 a53d
000001a0: 1d8a e338 d7a2 323b 8b38 f23d d1e1 72bd
000001b0: a3ce 15bc f4ac 90bb 5090 193d 8261 c13d
000001c0: d765 09bb 063f eb3c 65c4 cb3c dd14 a43d
000001d0: 531e 913c ec35 4cbd 1192 913d f858 e03c
000001e0: bb0a 71bc c73b b0bb fd0d a13c 36eb 9bbc
000001f0: 3498 c93c 256c d83d fa6e a9bc 5314 e7bc
0.10654489 0.02612387 -0.039755482 -0.03228787 -0.00017265181 0.096495844 -0.020210657 -0.004648454
-0.03234356 0.0022209731 -0.038348068 0.0621186 -0.045647725 -0.046005774 -0.053962804 0.034688544
-0.007836604 0.0065775043 -0.08844199 0.013041539 0.09732686 0.047745373 0.036997434 0.06135987
0.030546812 0.07324906 0.0055913823 -0.066087574 0.0027311854 -0.039528575 0.0270998 -0.0044536716
0.09565186 -0.085394286 0.056331016 0.058705077 0.03918175 0.013626258 0.10487884 -0.0021518555
0.011078327 0.06554443 0.016806617 0.004318076 0.071717516 -0.034835625 0.07246972 0.030966507
-0.03304339 0.06560952 -0.019952133 0.014808389 -0.089661404 -0.036848914 0.03959079 0.020741913
-0.055052493 0.081588686 0.0919314 -0.059736654 0.018471766 0.08224381 0.06254109 -0.031008538
0.017749446 -0.0006079668 0.08324479 -0.026326962 0.09003164 -0.05477559 -0.014359867 -0.019878874
-0.03217666 0.05431609 0.029715281 0.019532055 -0.005609121 0.011052762 0.011054979 -0.04651245
-0.0056612478 0.053618047 0.024916232 0.013549477 -0.037243173 -0.012283026 0.02421799 0.002045605
-0.00050444907 0.05841887 0.12176504 -0.0012651463 -0.013217112 0.0108044 0.04016492 -0.05843148
-0.025933955 -0.031217324 0.07771127 0.007415477 0.09648488 0.01519418 0.02605765 0.080793135
0.00010849929 0.0027257705 0.11827191 -0.059297387 -0.009143504 -0.004415149 0.037491143 0.09442426
-0.0020965242 0.028716575 0.024873922 0.08011792 0.017714655 -0.04985611 0.07107938 0.027386174
-0.014712031 -0.0053782198 0.01965999 -0.019033056 0.024608709 0.10567502 -0.0206828 -0.028207934

action_model._continuous_distribution.log_sigma f4 [1, 2]
00000000: 1b8f f53d 7e77 a1bc
0.11990186 -0.019710299

action_model._continuous_distribution.mu.weight f4 [2, 128]
00000000: 28d1 45bd b175 a43c a51d 183d a2d2 573d
00000010: a9af 3ebd c6da 4abd 290a 4cbd 01cd c53c
00000020: 7e1a 513c 1618 823c 6a23 ab3d 3d3e e8bc
00000030: d3fd 193d a795 203c 8979 ad3c f1d9 123d
00000040: eb1c c43c 353c 683c 43fd fdb9 0c1a e0bb
00000050: f570 5fbd e6b6 a13d 815c a63d e061 38bd
00000060: 54ba 283d 6ef2 cfbd 792f 963d a081 0b3b
00000070: 7800 963d 9089 a43d 7fea bf3d dc2f 8b3d
00000080: dbfb 70bd 8607 ea3c 2e3f 42bd 7ecf 61bd
00000090: c5e7 70bd a816 973c a956 9cbd 6523 b53b
000000a0: d342 993d f483 d6bc bf94 b43d e260 f83c
000000b0: 4852 18be a614 6f3d f03a 79bd 799f d23d
000000c0: 8394 733c 034a ca3a 982a f93c 7c4e a53d
000000d0: a01b 523d 2471 143d 336e 5dbd 8a74 583d
000000e0: dd37 aebc acb2 40bd 6ab1 79bd 08be 873d
000000f0: c82d 0d3d a15f 92bd c118 72bd 7b0b 573d
00000100: f7bb 70bd 5188 1e3d e7c6 41bd 017b 8c3c
00000110: 3fad 8cbd aceb 753b 4efd 6b3c b81a e33c
00000120: f21a e5ba 3142 26bd 7d8d ca3d 543c 8fbc
00000130: ac25 ac3d 6118 44bd e1fa a93d 75c3 e83b
00000140: 451b de3d 31dd 31bd b594 143d 2b02 ad3d
00000150: f63d 293d 1764 9a3d 22ef 5a3d cb62 4ebc
00000160: 0bba 9e3c 914a 5bbc 5c82 70bd 4f48 993c
00000170: ee8f c0bd 2648 733d 5727 833d f8ef 36ba
00000180: 5bde 743d af2c 983c 9446 c1bd 0cbe 1a3d
00000190: a3b3 2bbd 1ae2 433d 1dfe 42bc 7c7c babd
000001a0: 347a 893d dc13 893d 1db0 18bd 2bb9 0c3d
000001b0: 66f8 c43d b97d 62bb d984 373d 86aa 81bd
000001c0: a2c8 643d 6a9e 6d3d 8442 f0bc 998a 18bd
000001d0: c656 bc3b da06 1dba 3c53 79bd d946 a73c
000001e0: 978e cf3d 373d 643d ed6a 373d babf 623d
000001f0: 2661 9c3d 6bbd d4bc db71 d93c 7af7 453d
00000200: c56e 873d 2052 313d b055 11be eca4 cabd
00000210: aa54 643d a241 363d 71e7 0dbe 2b07 ffbd
00000220: eb20 0ebe 0f52 7bba 96c7 b7bd becd 1d3d
00000230: 0e0b 1c3d 0849 ccbd 5235 acbb e559 8b3c
00000240: 88f4 2cbe 06e0 01be c05d 90bd 94f5 853c
00000250: 4e37 563d 15af 5e3d 38bc a23d 1739 a13c
00000260: 19f9 3c3d 1268 183d b6d9 b7bd aaf7 a0bd
00000270: 26f7 2a3d 7c6a c2bb ef25 473d 1ba1 ecbd
00000280: e895 813d e79a 88bd 2acb f03b 2bcb fe3b
00000290: ce01 f73b 4d43 433d 40ca 5f3d 77d3 a3bb
000002a0: 62ac 9dbd f8d0 313d 57b2 e43c fc53 11be
000002b0: 968a 383c 43b4 cdbd 77ed c03c aea4 3e3d
000002c0: d2b6 3cbe 0485 043d 6d9a 9f3c 6c3d babd
000002d0: 7433 8cbd 5c75 3d3c 10e1 6e3c 75b9 313d
000002e0: 7d05 09be 7757 1d3d 4008 473d 060f 0bbe
000002f0: 191d 68bd 8264 d03c e10e ad3c 7743 0ebe
00000300: 633d 983c 9db2 f0bd 59ab bf3c a935 efbd
00000310: bb75 873c 99d3 d6bd 1a0f 0fbe e051 32be
00000320: 1e6b 03be f366 3e3c e9bf 40be e3f9 bbbd
00000330: 9432 63bd 9d48 f2bb 4840 743d c11c 19be
00000340: 60c2 9bbd 740f d03b f6a3 7c3c 8b86 d5bd
00000350: 5967 f8bd eb39 f6bd efcc acbd c68b 90bb
00000360: 9522 0fbe 4496 313d b31f 593d 90d9 b9bd
00000370: 47e3 33be 28c5 c4bd a034 b73d 4ec8 b7bd
00000380: f8f8 b8bd 519f 96bd 6950 693d c811 0b3d
00000390: e849 5d3d 7bff 49bd 5fe9 383c 2d76 123d
000003a0: 00d5 94bd bfb5 06be 0c40 723d c1cf f3bd
000003b0: dbbb d8bd 656c d13c 016d 2f3d c70c fb3c
000003c0: 5a70 9e3d a783 14be d334 94bc d18e 0b3d
000003d0: 3e69 63bc 8df9 9c3c 50d5 213d 99a7 1e3d
000003e0: 0b90 05ba e98c 36be d259 7e3c 0c6e 153d
000003f0: 7e4e 693d 5c2d 513d abf6 aabd 1ded c93b
-0.04829517 0.02007565 0.037137646 0.05269111 -0.04655424 -0.049525045 -0.049814377 0.024145605
0.012762664 0.015880626 0.08356364 -0.02834999 0.03759558 0.009801305 0.021176117 0.035852376
0.02393957 0.014174511 -0.00048444615 -0.0068390425 -0.054551084 0.07896213 0.081231125 -0.045015216
0.04119332 -0.10153662 0.073332734 0.002128698 0.07324308 0.080340505 0.093708985 0.06796238
-0.058833938 0.02856804 -0.047423534 -0.05512952 -0.058814783 0.01844342 -0.076337166 0.005527901
0.07483449 -0.026185967 0.088174336 0.030319635 -0.14875138 0.0583693 -0.060847223 0.10284323
0.014866951 0.0015433434 0.030415818 0.0807161 0.051295877 0.03624071 -0.054060172 0.052845515
-0.021266872 -0.047045395 -0.06096021 0.066280425 0.03446749 -0.07147146 -0.05910564 0.052501183
-0.058773007 0.03870422 -0.04730883 0.017148497 -0.068689816 0.0037524505 0.014403654 0.027722701
-0.0017479344 -0.04059047 0.09890268 -0.017484821 0.08405623 -0.047874812 0.082998045 0.0071033784
0.10845045 -0.043423835 0.03627463 0.08447679 0.041318856 0.07538622 0.05345071 -0.012596796
0.019375822 -0.013384477 -0.05871807 0.018711237 -0.094024524 0.059394978 0.06403988 -0.0006978507
0.059782367 0.018575994 -0.0943729 0.0377789 -0.04191936 0.04782305 -0.011901406 -0.09105775
0.067127615 0.06693241 -0.03727733 0.034356277 0.09617691 -0.00345598 0.044804428 -0.06331353
0.0558554 0.058012404 -0.029328592 -0.037241552 0.005747649 -0.00059900957 -0.060870394 0.020419525
0.10134619 0.05572244 0.044779707 0.055358626 0.07635717 -0.025969228 0.026543548 0.048331715
0.066129245 0.04329121 -0.14192843 -0.098947376 0.055744804 0.044496186 -0.13857819 -0.12452539
-0.13879745 -0.0009587118 -0.08973615 0.03852629 0.03809648 -0.09974867 -0.0052553797 0.017010638
-0.16890156 -0.12683114 -0.070491314 0.016352452 0.052298836 0.05436619 0.07946056 0.019680543
0.046135996 0.037208624 -0.08977072 -0.07859738 0.041739605 -0.005933104 0.04862016 -0.11554166
0.063274205 -0.0667017 0.007348438 0.0077756844 0.007538057 0.047671605 0.05463624 -0.004999574
-0.07698895 0.04341218 0.02791707 -0.14192194 0.01126351 -0.10044148 0.023550732 0.04654377
-0.18429115 0.032353416 0.019482816 -0.090937465 -0.068457514 0.011563625 0.014580026 0.043389756
-0.13381 0.03841349 0.048591852 -0.1357995 -0.056668375 0.02543855 0.021125259 -0.13892923
0.018583959 -0.11752818 0.023397135 -0.11680157 0.01653563 -0.10489578 -0.13970605 -0.17414045
-0.1283383 0.011621225 -0.18823208 -0.091785215 -0.055468157 -0.00739391 0.059631616 -0.14952375
-0.076054335 0.0063494984 0.015419951 -0.10426053 -0.12129087 -0.12022766 -0.084375255 -0.0044111935
-0.13978036 0.043356195 0.053008746 -0.090747 -0.17567168 -0.09607917 0.08945584 -0.08973752
-0.09031862 -0.07354606 0.05696145 0.033952504 0.05402556 -0.04931591 0.011286109 0.035757232
-0.07267189 -0.13155268 0.05914311 -0.1190486 -0.105827056 0.025564382 0.042828564 0.030645741
0.07736273 -0.14503346 -0.018091595 0.034071747 -0.013880072 0.019161964 0.03951007 0.038734052
-0.00050950114 -0.1782719 0.0155243445 0.036481902 0.05695962 0.05106865 -0.083478294 0.0061622993

action_model._continuous_distribution.mu.bias f4 [2]
00000000: 6b72 dcbc 2ba0 b63d
-0.026910027 0.08917268

onnx::Div_51 f4 [90]
00000000: 7365 7a3e 8fe7 663e 9108 473e 5607 1c3e
00000010: 1914 e53d c8d6 b23d 8304 8f3d 8ced 643d
00000020: d855 333d 65d7 063d 38f0 c73c 02cf 993c
00000030: fa93 6b3c bb0b 333c 1998 063c 1957 c43b
00000040: 4ffc 883b a71f 3b3b 5a0b 0b3b 67cf e83a
00000050: 2107 d13a fd1d a83a ca50 a33a 5664 a33a
00000060: 906c a33a 366a a33a 2201 ab3a a830 ab3a
00000070: bd66 b23a b949 bb3a a3a1 bf3a ee53 c13a
00000080: 95fb ce3a b8bc cf3a 0cbe cf3a 9549 d53a
00000090: 2fde d73a 919d e23a 886a 273b e39b 873b
000000a0: 9862 b33b e1fd d73b b0ea 093c b2d2 2a3c
000000b0: ae85 553c d3c1 a53c 2204 813e f1a8 813e
000000c0: 971f 803e 3bdb 793e b686 713e b779 693e
000000d0: c778 613e b268 5b3e 7df0 563e 9198 543e
000000e0: 6eb6 503e ab1c 4a3e 8e31 443e 1045 403e
000000f0: 3e83 3d3e 4d75 413e fe7a 463e 4f19 453e
00000100: 337d 413e 5bc1 3f3e a6f2 3d3e aabe 3a3e
00000110: c961 3c3e 9da8 403e d78a 463e eeb9 4c3e
00000120: 64ae 523e 2203 583e 5d20 5e3e 6df4 643e
00000130: f821 6b3e eb79 6f3e b801 713e 2254 6f3e
00000140: 7b56 683e 8dd7 5b3e cc91 443e aea2 113e
00000150: 9cbf ad3d 649e 833d 633c 5c3d e60e 3a3d
00000160: 63a4 163d d354 ea3c
0.24452762 0.2254927 0.19436862 0.15237173 0.11185474 0.087323725 0.069832824 0.055890605
0.04378304 0.03292026 0.024406537 0.018775467 0.014378542 0.01092809 0.008214974 0.005991828
0.004180468 0.0028552802 0.0021216483 0.0017762006 0.0015947559 0.001282632 0.001245999 0.0012465816
0.0012468267 0.0012467566 0.0013046602 0.0013060765 0.0013610941 0.0014288939 0.0014620315 0.0014749744
0.001579153 0.0015849089 0.0015849485 0.001627254 0.0016469414 0.001728939 0.0025545675 0.004138456
0.0054744 0.006591544 0.00841777 0.01042621 0.01303236 0.020234024 0.25198466 0.25324205
0.250241 0.24400036 0.23586544 0.22800337 0.22018729 0.21426657 0.20990176 0.20761324
0.20382091 0.19737498 0.19159529 0.18776345 0.18507096 0.18892403 0.19382855 0.19247936
0.18895416 0.18726103 0.18549594 0.18236795 0.18396677 0.18814321 0.193889 0.19992802
0.20574337 0.21094945 0.21692033 0.22358866 0.22962177 0.23386352 0.23535812 0.23371938
0.2268924 0.21468945 0.19196242 0.14222214 0.08483812 0.06426695 0.053768527 0.045424365
0.036777865 0.0286049
