Assets/Models/Park90RC.onnx (onnx, 167506 bytes, 9 tensors)

network_body.observation_encoder.processors.0.normalizer.running_mean f4 [182]
0	0x3e8a2c60	0.2698698
1	0x3f3e97c0	0.744503
2	0x3e87cf38	0.26525283
3	0x3f3b1031	0.7307158
4	0x3e8aee9a	0.27135164
5	0x3f419834	0.7562287
6	0x3e82541b	0.25454792
7	0x3f36c8aa	0.7139994
8	0x3e921b8b	0.2853664
9	0x3f42db31	0.7611571
10	0x3e710f72	0.23541048
11	0x3f32925f	0.69754595
12	0x3e9378d5	0.28803125
13	0x3f4289d8	0.7599158
14	0x3e5f62f9	0.21815099
15	0x3f2fb41d	0.68634206
16	0x3e94c221	0.2905436
17	0x3f4070e2	0.75172246
18	0x3e4bd7b9	0.1990651
19	0x3f2d5c7f	0.6771926
20	0x3e960347	0.29299375
21	0x3f3d315d	0.7390345
22	0x3e478ddc	0.19487709
23	0x3f2bd55d	0.6712244
24	0x3e99fe25	0.3007671
25	0x3f3a12db	0.7268502
26	0x3e504de5	0.20342214
27	0x3f2c431f	0.6728992
28	0x3e9e4535	0.30912176
29	0x3f374ee4	0.7160475
30	0x3e5eae78	0.21746242
31	0x3f2e38b0	0.6805525
32	0x3ea53fd7	0.32275268
33	0x3f35f4aa	0.7107645
34	0x3e709684	0.23494917
35	0x3f318bbc	0.6935384
36	0x3eac8f96	0.33703297
37	0x3f3657b6	0.71227586
38	0x3e84e735	0.25957647
39	0x3f35e78f	0.71056455
40	0x3eb79f46	0.35863703
41	0x3f3866d6	0.72031915
42	0x3e92ec81	0.28696063
43	0x3f3abacb	0.72941273
44	0x3ec3401a	0.38134843
45	0x3f3bb4fc	0.73323035
46	0x3ea3eea9	0.3201802
47	0x3f3f841d	0.74810964
48	0x3ece90a3	0.40344724
49	0x3f401cbb	0.7504384
50	0x3eb7417c	0.35792148
51	0x3f442f30	0.766345
52	0x3edc85f3	0.43070945
53	0x3f4593d6	0.77178705
54	0x3eca3fb3	0.39501724
55	0x3f482bc9	0.7819181
56	0x3eec4340	0.46145058
57	0x3f4c230e	0.7974099
58	0x3edd4b79	0.43221644
59	0x3f4baad1	0.7955752
60	0x3ef9ea16	0.48811406
61	0x3f531bdc	0.82464385
62	0x3eee79b1	0.46577218
63	0x3f4f5ba6	0.8099922
64	0x3f0527bf	0.5201377
65	0x3f5a17c1	0.85192496
66	0x3effe777	0.4998128
67	0x3f52bc8e	0.8231896
68	0x3f0dc3f4	0.55377126
69	0x3f616ba1	0.88054854
70	0x3f0853cd	0.5325287
71	0x3f55a5ae	0.8345593
72	0x3f198e5d	0.59982854
73	0x3f67c928	0.90541315
74	0x3f0ec77d	0.55773145
75	0x3f5843ac	0.8447826
76	0x3f28b5c7	0.6590237
77	0x3f6b59cb	0.9193389
78	0x3f151ff5	0.5825189
79	0x3f59f7fe	0.8514403
80	0x3f357274	0.70877767
81	0x3f6c2a9b	0.9225251
82	0x3f1bb256	0.60818994
83	0x3f5ab7e7	0.8543686
84	0x3f3e426a	0.7432009
85	0x3f6bf382	0.9216844
86	0x3f2212cf	0.6330995
87	0x3f5afe9d	0.8554476
88	0x3f44a463	0.76813334
89	0x3f6aed62	0.9176847
90	0x3f273e47	0.653294
91	0x3f5b3e6b	0.8564212
92	0x3f4aafad	0.7917431
93	0x3f69bd0f	0.91304106
94	0x3f2bb0c2	0.67066586
95	0x3f5bd9e9	0.8587938
96	0x3f4f50df	0.80982774
97	0x3f68e27b	0.9097058
98	0x3f308b13	0.6896221
99	0x3f5d4c40	0.86444473
100	0x3f5166c5	0.8179744
101	0x3f688e74	0.90842366
102	0x3f35586e	0.7083806
103	0x3f5f9326	0.87333906
104	0x3f525dd5	0.82174426
105	0x3f68d704	0.9095309
106	0x3f3a3708	0.7274022
107	0x3f626897	0.8844084
108	0x3f532cf3	0.8249046
109	0x3f699dff	0.9125671
110	0x3f3ffb4f	0.7499284
111	0x3f659d03	0.89692706
112	0x3f53fb2c	0.8280513
113	0x3f6ac593	0.91707724
114	0x3f45de99	0.7729278
115	0x3f68f031	0.90991503
116	0x3f54bf8a	0.83104765
117	0x3f6c3f29	0.92283875
118	0x3f4cdfce	0.80029
119	0x3f6c1ef5	0.92234737
120	0x3f55d7d1	0.83532435
121	0x3f6e055c	0.9297693
122	0x3f524f05	0.82151824
123	0x3f6f0c6c	0.9337833
124	0x3f57432c	0.8408687
125	0x3f701b3f	0.93791574
126	0x3f572f2c	0.84056354
127	0x3f72042d	0.9453762
128	0x3f592c9d	0.848337
129	0x3f7284d0	0.94733906
130	0x3f5c6f48	0.861073
131	0x3f74f884	0.95691705
132	0x3f5d60fe	0.86476123
133	0x3f7525c3	0.95760745
134	0x3f62da08	0.8861394
135	0x3f77c848	0.9678998
136	0x3f6266b1	0.88437945
137	0x3f77b3ae	0.96758544
138	0x3f695ae6	0.91154325
139	0x3f7a387d	0.97742444
140	0x3f67b7c6	0.9051479
141	0x3f7a2170	0.9770727
142	0x3f6e8371	0.93169314
143	0x3f7c3ae9	0.9852739
144	0x3f6e19d0	0.93008137
145	0x3f7c464a	0.9854475
146	0x3f74725d	0.95487005
147	0x3f7df387	0.9919972
148	0x3f7351fc	0.95046973
149	0x3f7e09cb	0.9923369
150	0x3f79bdde	0.9755534
151	0x3f7efe5d	0.9960688
152	0x3f7a98b5	0.9788926
153	0x3f7f7795	0.9979184
154	0x3f7c8964	0.9864714
155	0x3f7fa4cb	0.9986083
156	0x3f7f6fa4	0.99779725
157	0x3f7fe4e3	0.9995863
158	0x3f7f304e	0.9968308
159	0x3f7fe8a6	0.9996437
160	0x3f7fca65	0.99918205
161	0x3f7feeb3	0.999736
162	0x3f7feb64	0.9996855
163	0x3f7ff72c	0.9998653
164	0x3f7fe7f2	0.99963295
165	0x3f7ff5a2	0.9998418
166	0x3f7ff356	0.99980676
167	0x3f7ff884	0.9998858
168	0x3f7ff406	0.99981725
169	0x3f7ff89e	0.99988735
170	0x3f7ff48b	0.9998252
171	0x3f7ff8e6	0.99989164
172	0x3f7ff73b	0.9998662
173	0x3f7ff9c4	0.9999049
174	0x3f7ff53a	0.9998356
175	0x3f7ff91d	0.9998949
176	0x3f7ff745	0.9998668
177	0x3f7ff9c6	0.999905
178	0x3f7ff643	0.9998514
179	0x3f7ff977	0.9999003
180	0x3f7ff643	0.9998514
181	0x3f7ff977	0.9999003

network_body._body_endoder.seq_layers.0.weight f4 [128, 182]
0	0xbd1025a8	-0.03519216
1	0x3d130742	0.035895593
2	0xbd0262f8	-0.031832665
3	0xbe21c561	-0.1579795
4	0x3d6c5032	0.057693668
5	0x3c0cd249	0.008595058
6	0xbc07af55	-0.0082815485
7	0xbe15d5b4	-0.14632303
8	0xbd35b3d5	-0.044360954
9	0x3da2a5f4	0.07941809
10	0x3d23f981	0.040032867
11	0x3d05160d	0.032491732
12	0x3d7feaeb	0.062479895
13	0xbb9e7284	-0.0048354287
14	0x3e0aba42	0.13547614
15	0x3c8cd366	0.017190646
16	0xbd165248	-0.036699563
17	0xbd1413b3	-0.0361516
18	0xb95f3ab4	-0.00021288806
19	0xbe27900e	-0.16363546
20	0x3dc61a85	0.09673027
21	0x3cd40292	0.025880132
22	0x3c23d4a5	0.009999429
23	0xbe20ffc5	-0.15722568
24	0x3e0ef82e	0.1396186
25	0xbe2d2984	-0.16910368
26	0x3dd13681	0.10215474
27	0xbdc037a5	-0.09385613
28	0x3b9c82c3	0.00477633
29	0xbe58c012	-0.21167019
30	0x3b2ddf4b	0.0026530798
31	0xbdd1b26c	-0.102391094
32	0xbdf151f9	-0.11783213
33	0x3c87b72d	0.016566837
34	0x3e237e30	0.15966105
35	0xbcf0c531	-0.029390903
36	0xbe1a571e	-0.15072295
37	0xbd8a640f	-0.06757366
38	0xbdaf994b	-0.0857416
39	0xbe0369d6	-0.12833342
40	0x3bb74cc8	0.00559387
41	0x3d9bd6e2	0.07609345
42	0xbca7cc95	-0.020483295
43	0xbd2acfde	-0.041702144
44	0xbdf4a8d2	-0.119462624
45	0x3cdc08fa	0.02685975
46	0x3d2a190d	0.041527797
47	0xbe0c01a2	-0.13672498
48	0x3da791ab	0.08182081
49	0x3cff9262	0.03119773
50	0x3cc9d0af	0.02463564
51	0xbda88a3e	-0.082294926
52	0x3dca3cff	0.09874915
53	0x3dac9f56	0.084288284
54	0xbd94b345	-0.072607554
55	0x3d9483e6	0.0725172
56	0xbd0980c6	-0.033570074
57	0x3d7797a6	0.060447358
58	0x3d0223e0	0.031772494
59	0x3d9cb3a1	0.07651449
60	0x3ba291e7	0.0049612406
61	0x3db0a669	0.0862549
62	0xbdbd25ae	-0.092357025
63	0xbc25c859	-0.010118567
64	0xbbbedf1c	-0.0058249366
65	0xbddf3657	-0.108990364
66	0xbda993b9	-0.08280129
67	0x3d8d5f6c	0.06902966
68	0x3b2d88c0	0.0026479214
69	0xbd321ec4	-0.04348637
70	0xbd8dc96c	-0.06923184
71	0x3d2d4838	0.0423052
72	0xbda3b473	-0.07993402
73	0xbc6cb862	-0.014448257
74	0xbe0c74cc	-0.1371643
75	0xbcb23f51	-0.021758707
76	0xbd826599	-0.063670345
77	0xbd13a723	-0.036048066
78	0x3d3afc1d	0.04565059
79	0xbdbd278b	-0.09236058
80	0x3d40541c	0.046955213
81	0xbd4407e1	-0.047859076
82	0x3da74abc	0.08168551
83	0xbb3037e5	-0.0026888784
84	0xbb978e7e	-0.0046251407
85	0xbc1ed498	-0.009694241
86	0x3dd7a25e	0.10529016
87	0xbe1d9d47	-0.15392028
88	0x3d23688b	0.03989462
89	0xbddd1189	-0.1079436
90	0xbe173e98	-0.14769971
91	0xbc9e301b	-0.019310048
92	0xbd821f9f	-0.063536875
93	0xbe0d6295	-0.13807137
94	0xbdd772cc	-0.10519943
95	0xbdda2f03	-0.10653498
96	0xbd486689	-0.04892591
97	0x3d76118e	0.060075335
98	0x3bd5e4c2	0.006527514
99	0xbdda90ab	-0.106721245
100	0xbd7312cb	-0.059344094
101	0xbb996eee	-0.0046824133
102	0xbe1693b9	-0.14704789
103	0xbcb80704	-0.022464283
104	0xbd68d21f	-0.056841012
105	0x3ceb2ec3	0.028708821
106	0x3d067302	0.032824524
107	0x3db2c598	0.08729094
108	0xba13f2c3	-0.00056437793
109	0xbddd50c5	-0.10806421
110	0xbe3e1332	-0.1856201
111	0xbd9386f1	-0.072034724
112	0xbcc524ac	-0.024065338
113	0xbd1b2297	-0.037874784
114	0xbe30648c	-0.17225856
115	0x3c0f253b	0.008736904
116	0xbc3c7ec5	-0.011504834
117	0x3d79d0d7	0.06099018
118	0x3d8787ac	0.06617674
119	0xbcf802aa	-0.030274708
120	0xbb8535d0	-0.004065253
121	0x3c96219c	0.018326573
122	0xbd49845f	-0.049198505
123	0xbd673964	-0.056451216
124	0x3df195ad	0.117961265
125	0xbd2f9f58	-0.04287657
126	0x3cc0bff3	0.023529029
127	0x3da9296f	0.08259856
128	0x3d135e10	0.035978377
129	0x3b9be001	0.004756928
130	0x3d9e2a99	0.077229686
131	0x3e0e606c	0.1390397
132	0xbdb13ad6	-0.086538
133	0x3cdb2ec5	0.0267557
134	0x3e1d5fe6	0.15368614
135	0x3c032be3	0.008006069
136	0x3da6f610	0.081524014
137	0xbc2b6cfd	-0.010462997
138	0x3e35187e	0.17685124
139	0x3c11f0d5	0.0089075165
140	0x3d0cd007	0.034378078
141	0xbcd229b6	-0.025654655
142	0xbdda00ad	-0.1064466
143	0xbc7f62e0	-0.0155875385
144	0x3e03051e	0.12794921
145	0x3e138472	0.14405993
146	0xbdf1751b	-0.11789914
147	0x3b47ea13	0.003050451
148	0x3da2b3e2	0.07944466
149	0xbc6216c0	-0.013799369
150	0xbccf5948	-0.025311127
151	0x3b663256	0.0035125217
152	0x3d6c41dc	0.057679996
153	0x3db879d5	0.090076126
154	0x3c082a87	0.008310921
155	0x3d51d536	0.051228724
156	0x3df60ad1	0.12013782
157	0x3d7e6f88	0.062118083
158	0x3d5935e1	0.0530299
159	0xbd0e1ccc	-0.03469543
160	0x3b62fa40	0.0034634024
161	0xbd95d5e7	-0.07316189
162	0xbc06a8c3	-0.008218947
163	0x3d32ba88	0.04363492
164	0xbc0b0509	-0.008485087
165	0xbdae3e09	-0.08507926
166	0x3d3820d5	0.044953186
167	0xbcb9173b	-0.022594085
168	0x3c674172	0.0141147245
169	0xbb27620b	-0.0025540616
170	0x3b662a30	0.003512036
171	0x3da39d29	0.0798896
172	0xbd0c1b5b	-0.034205776
173	0x3d1049d1	0.035226647
174	0xbde90a3c	-0.11378905
175	0x3d034163	0.03204478
176	0xbc5d35fa	-0.013501639
177	0xbd68f22f	-0.05687159
178	0x3d0bea32	0.034158893
179	0xbd759a93	-0.059961867
180	0xbd70be5e	-0.0587753
181	0xbc79f48c	-0.015256058
182	0x3d984c80	0.07436466
183	0xbd90e4bb	-0.07074877
184	0xbd2f2aac	-0.042765304
185	0xbd963603	-0.07334521
186	0xbc32e799	-0.010919475
187	0xbc6c53ba	-0.014424259
188	0x3cf7c4b6	0.030245166
189	0x3df46d03	0.11934855
190	0xbd830687	-0.06397729
191	0x3d08234a	0.03323678
192	0xbd02d461	-0.03194082
193	0x3d5ac881	0.05341387
194	0x3b6f1287	0.003647955
195	0x3d925a06	0.07146077
196	0xbde33a96	-0.11095159
197	0xbba02f92	-0.0048884833
198	0xbbb6b840	-0.0055761635
199	0x3d7197da	0.058982708
200	0x3d724ad9	0.05915341
201	0x3da45bb2	0.08025302
202	0x3e277087	0.1635152
203	0xbd076c17	-0.033062067
204	0xbe197f53	-0.14989977
205	0x3df3b0be	0.11898945
206	0x3dd004d9	0.101571746
207	0x3d8eb142	0.06967403
208	0xbd758424	-0.059940472
209	0x3c9c8c92	0.019109998
210	0x3d7671f7	0.06016728
211	0x3dad7bc0	0.08470869
212	0x3d6d83c0	0.057986975
213	0xbb62d4a7	-0.0034611614
214	0xbc6e0078	-0.014526479
215	0xbcba160f	-0.022715596
216	0xbd78ae61	-0.060713176
217	0xbc072c04	-0.00825024
218	0xbda50311	-0.080572255
219	0x3d42f8b7	0.047600474
220	0xbdd7df5b	-0.105406485
221	0x3e14e040	0.1453867
222	0xbd563c50	-0.052303612
223	0x3bde6d61	0.0067879413
224	0xbd7ec3db	-0.0621985
225	0x3d9aa1af	0.0755037
226	0x3dc05df2	0.09392919
227	0xbc8f240e	-0.017473247
228	0x3da68b33	0.08132019
229	0x3d978eeb	0.07400306
230	0x3c41e747	0.011834926
231	0x3c56b983	0.013105753
232	0xbdb95773	-0.09049883
233	0x3cc4564e	0.023966935
234	0x3ce2354a	0.0276133
235	0xbd14a047	-0.036285665
236	0x3c05ae3e	0.008159218
237	0x3c689fd4	0.014198262
238	0xbde07695	-0.10960118
239	0x3d8d0208	0.06885153
240	0xbd3b0f78	-0.04566905
241	0xbcb2e2ce	-0.021836665
242	0xbcde28dd	-0.027119095
243	0x3dd0264d	0.10163555
244	0x3d519692	0.051168986
245	0xbd907755	-0.07054011
246	0x3ca215b6	0.019785743
247	0xbcf586d8	-0.029971525
248	0xbc644c6b	-0.013934235
249	0xbd95ee40	-0.07320833
250	0x3cc82890	0.024433404
251	0x3ddd477a	0.10804649
252	0x3d92144d	0.07132778
253	0xbdb586c2	-0.08863594
254	0x3d7f0d70	0.062268674
255	0x3dbf7573	0.093485735

network_body._body_endoder.seq_layers.0.bias f4 [128]
0	0xbd043ef5	-0.032286603
1	0xbbbc5304	-0.005747201
2	0x3c4fff4c	0.012695145
3	0xbcc6544d	-0.02421012
4	0x3b6cba2a	0.0036121705
5	0xbd1acb2d	-0.03779142
6	0xbc06539f	-0.008198648
7	0xbd1917d1	-0.03737623
8	0x3d2377c8	0.039909154
9	0x3bbfc6cf	0.0058525573
10	0x3d2c8b89	0.04212526
11	0xbd4b111c	-0.049576864
12	0xbd9c9638	-0.076458395
13	0x3d0a1173	0.033708047
14	0x3cca4d72	0.024695132
15	0xbbfe5bc4	-0.007762404
16	0xbd8c7b3d	-0.06859443
17	0xbcfc9933	-0.03083477
18	0xbcacdb3d	-0.021100635
19	0x3c46ba82	0.012129428
20	0xbc1001d7	-0.008789501
21	0x3be9b93c	0.0071326774
22	0xbd07907b	-0.03309677
23	0xbb22fb91	-0.0024869184
24	0xbc58e465	-0.013238047
25	0xbd05ffad	-0.032714535
26	0x3c743f5a	0.014907682
27	0xbc8dc2f0	-0.017304868
28	0xbcc5a44b	-0.024126193
29	0xbcc007a4	-0.023441143
30	0x3c4d0c38	0.01251512
31	0x3d2aa0d0	0.04165727
32	0x3b91ea5b	0.004452986
33	0xbbfc8f6e	-0.007707528
34	0x3d4a6879	0.04941604
35	0xbb8f52b3	-0.004373872
36	0xbcd8cc3b	-0.026464572
37	0x3c549660	0.012975305
38	0x3ce3c7fd	0.027805323
39	0x3c1bc24c	0.009506773
40	0x3cc7b7bd	0.024379605
41	0x3d518313	0.051150393
42	0xbd291c7f	-0.04128694
43	0xbcbaf38b	-0.022821208
44	0x3d15df36	0.036589824
45	0xbccff524	-0.025385447
46	0x3d30c8d1	0.043160263
47	0xbc4cf410	-0.012509361
48	0x3b6a5cb1	0.0035760815
49	0x3c266b84	0.01015747
50	0xbd04a586	-0.032384418
51	0x3bba8a2e	0.005692742
52	0xbcab358d	-0.020899558
53	0x3c24b671	0.010053263
54	0xbd594ced	-0.053051878
55	0x3c84de96	0.016219418
56	0x3cbc11a3	0.022957629
57	0x3c0880e1	0.008331508
58	0x3c1ed01b	0.009693171
59	0x3d6a7680	0.057241917
60	0x3d1e22e4	0.038607493
61	0xbb86fcd1	-0.0041194935
62	0x3d375c9e	0.04476606
63	0xbcb19b45	-0.021680484
64	0x3cad6e42	0.02117074
65	0xbc90c9ae	-0.017674293
66	0x3b7f180a	0.003892424
67	0x3ba231d2	0.0049497867
68	0xbd051dc1	-0.03249908
69	0xbbb470ec	-0.0055066254
70	0x3a9450d8	0.0011315597
71	0xbca5ddfb	-0.02024745
72	0x396445e9	0.00021769818
73	0x3d118f7f	0.03553724
74	0x3a827047	0.0009951674
75	0x3b89b0d5	0.004201988
76	0xbd9bef7f	-0.0761404
77	0xbb876a10	-0.0041325167
78	0x3d0c3a60	0.03423536
79	0x39525ff6	0.00020062909
80	0x3d16814c	0.0367444
81	0xbd2c3996	-0.042047106
82	0x3c1c35d0	0.009534314
83	0xbd8d4c42	-0.06899311
84	0xbd7c97af	-0.061668094
85	0xbb2f58f6	-0.0026755906
86	0x3ccc1162	0.024910633
87	0xbd9c2592	-0.076243535
88	0x3b6b312c	0.0035887463
89	0xbcef9d90	-0.029249936
90	0xbd5909a3	-0.052987706
91	0xbb6fc699	-0.003658688
92	0xbc870f9f	-0.01648694
93	0x3c6a5920	0.014303476
94	0x3c346a5f	0.011011689
95	0x3bbdfc35	0.0057978877
96	0x3d0b2b82	0.03397704
97	0xbd0a8cc2	-0.033825643
98	0x3c5661f6	0.013084879
99	0xbcc8ff63	-0.02453584
100	0xbd026366	-0.031833075
101	0xbc9628cf	-0.018330006
102	0x3ce92713	0.028461015
103	0x3cea116a	0.028572757
104	0xbcd04a17	-0.025425954
105	0xbae7248e	-0.0017634796
106	0x3ce0312c	0.027367197
107	0xbd31193c	-0.043236956
108	0xbc83897c	-0.016056769
109	0x3caa5809	0.020793932
110	0x3d12d342	0.035846002
111	0x3c8cf3f4	0.01720617
112	0x3d7c4a32	0.061594196
113	0x3cf0a209	0.02937414
114	0xbc809514	-0.015696086
115	0x3cc0c76f	0.023532597
116	0x3ccf6efc	0.025321476
117	0xbc0c251b	-0.0085537685
118	0xbb2aa28a	-0.0026036822
119	0x3c62b8da	0.013838017
120	0x3b5b9c43	0.0033509887
121	0xbd0be1ae	-0.03415077
122	0x3ca02193	0.01954726
123	0x3cbd0ad2	0.023076449
124	0xbbff66ae	-0.007794223
125	0x3a206fad	0.00061201566
126	0xbc8ce2ad	-0.017197931
127	0xbd3c47de	-0.045966975

network_body._body_endoder.seq_layers.2.weight f4 [128, 128]
0	0xbdfa5d98	-0.12224883
1	0x3c069c47	0.00821597
2	0x3d24342d	0.04008882
3	0xbd7c5f78	-0.061614484
4	0xbdadcc4a	-0.08486231
5	0xbd7c6a22	-0.061624654
6	0x3df16738	0.117872655
7	0xbcc0251a	-0.023455191
8	0x3dad09c6	0.0844913
9	0x3c01288e	0.007883204
10	0x3d4006cd	0.046881486
11	0xbd80911b	-0.06277677
12	0x3e23ea5f	0.16007374
13	0xbe3bdc6f	-0.18345807
14	0x3c2b353e	0.010449706
15	0xbe60987a	-0.21933165
16	0xbd6eb7b2	-0.058280654
17	0xbddb0d71	-0.10695923
18	0xbde56afa	-0.11202045
19	0xbce0773f	-0.027400611
20	0xbe5bc4ae	-0.21461746
21	0x3d2f7098	0.042831987
22	0x3c859c61	0.016309919
23	0x3dbcf740	0.09226847
24	0xbe252f22	-0.16131261
25	0xbc5e3f4a	-0.013564894
26	0x3cee640b	0.029100439
27	0xbde329d8	-0.110919654
28	0xbe00576f	-0.12533353
29	0x3d360c0a	0.044445075
30	0xbdfcc0e4	-0.123414785
31	0x3dc53b92	0.09630503
32	0xbd9341bc	-0.07190272
33	0xbdc7f1e4	-0.09762934
34	0xbd85bb0a	-0.065298155
35	0x3dedf194	0.11618343
36	0xbc9696c9	-0.018382447
37	0xbda9d4e0	-0.08292556
38	0xbe1c8417	-0.15284763
39	0xbdc05d7b	-0.0939283
40	0xbe3f2b06	-0.18668756
41	0xbcae3648	-0.021266118
42	0x3d66f968	0.056390196
43	0x3df8f753	0.12156548
44	0xbdd05e90	-0.10174286
45	0xbe0a1f7c	-0.13488573
46	0x3c3ff75a	0.011716688
47	0x3d5f2fe8	0.054489046
48	0xbe37e55d	-0.17958589
49	0x3e117642	0.14205268
50	0x3dd54a6b	0.10414585
51	0xbce4c3a3	-0.027925318
52	0x3d666444	0.056247965
53	0xbdda5675	-0.106610216
54	0xbddb4aae	-0.107076034
55	0xbe2d4b0a	-0.16923156
56	0x3ddfd8ad	0.109299995
57	0x3dbf9bc7	0.09355884
58	0xbd86c86b	-0.065811954
59	0xbe009f27	-0.12560712
60	0xbe32d19c	-0.17462772
61	0xbe267d0d	-0.1625864
62	0x3da016e4	0.07816866
63	0xbddc7b7d	-0.10765741
64	0xbc0b49af	-0.008501454
65	0x3dafb1b4	0.08578816
66	0x3cf49de5	0.029860446
67	0x3e342993	0.17593984
68	0xbc276dad	-0.01021902
69	0xbda51f6e	-0.08062635
70	0xbc67feb8	-0.014159851
71	0x3e7bb935	0.2458237
72	0xbdb78e51	-0.089626916
73	0xbdbdca1b	-0.09267064
74	0xbdecba44	-0.11558965
75	0xbe1d7ca7	-0.15379582
76	0xbc88cb31	-0.016698452
77	0xbd7bcfe3	-0.061477553
78	0xbe18fc0c	-0.14939898
79	0xbe20c857	-0.15701424
80	0xbe3a907f	-0.18219183
81	0x3d23cd00	0.039990425
82	0x3e7886a5	0.24270113
83	0x3c106800	0.008813858
84	0x3c0075a9	0.007840552
85	0x3e0e9f05	0.13927849
86	0xbdb97d7b	-0.090571366
87	0xbba9190c	-0.0051604565
88	0x3e0605a9	0.13088097
89	0x3d2dd1d2	0.04243643
90	0xbda5337c	-0.080664605
91	0x3e0bf251	0.13666655
92	0x3d98be21	0.07458139
93	0xbd2c491a	-0.042061903
94	0x3d9824ac	0.074288696
95	0x3d361078	0.0444493
96	0xbdbf9921	-0.09355379
97	0x3cd04aa1	0.02542621
98	0xbe9026af	-0.28154513
99	0xbe63556f	-0.22200559
100	0xbd9b6acd	-0.0758873
101	0xbd841e90	-0.06451142
102	0x3cba9a95	0.022778789
103	0x3d27209e	0.04080259
104	0x3d179adc	0.03701292
105	0xbcac675f	-0.021045385
106	0xbce02d55	-0.027365366
107	0x3d21cc22	0.039501317
108	0x3ddd0c83	0.10793402
109	0xbe201b73	-0.15635471
110	0xbd16ff98	-0.036864847
111	0x3e19d85f	0.15023945
112	0x3cf73931	0.030178638
113	0x3d45299e	0.048135392
114	0xbd6dea9c	-0.05808507
115	0xbd834d92	-0.0641128
116	0xbde1743c	-0.11008498
117	0x3c1b588e	0.009481562
118	0x3c02d9da	0.00798651
119	0xbddb0c61	-0.106957205
120	0xbd28d1a6	-0.04121556
121	0x3dce6f29	0.10079796
122	0x3b75341c	0.0037415093
123	0x3d90be24	0.070675164
124	0xbd2755ea	-0.04085342
125	0xbd647c76	-0.055782758
126	0xbdafb540	-0.085794926
127	0x3cf8b08a	0.030357618
128	0xbd07b4bc	-0.033131346
129	0x3d6437ad	0.05571716
130	0xbe452657	-0.19252907
131	0xbe89243e	-0.26785463
132	0x3e0ef84d	0.13961907
133	0x3d98c77e	0.07459925
134	0x3d9e3249	0.07724435
135	0x3cd60328	0.026124552
136	0x3d6e4fac	0.05818145
137	0xbc34888e	-0.011018885
138	0xbcc46768	-0.02397509
139	0xbdf80bf4	-0.12111655
140	0xbe0eaa1c	-0.13932079
141	0xbdbfdbb8	-0.0936808
142	0xbe33b84f	-0.17550777
143	0xbe4bbff1	-0.19897439
144	0x3d340b0a	0.04395584
145	0xbdaa079f	-0.08302235
146	0x3d0d9a18	0.034570783
147	0x3d382012	0.04495246
148	0xbdcda0b3	-0.100404166
149	0xbd1c29cf	-0.03812581
150	0x3c9b2665	0.018939206
151	0xbd2aef78	-0.04173228
152	0x3db79850	0.08964598
153	0x3d3f21db	0.046663146
154	0x3d8d3bc4	0.06896165
155	0x3d3dc6ec	0.046332285
156	0xbdc7d533	-0.097574614
157	0xbd974a0d	-0.07387171
158	0xbdd822ee	-0.10553537
159	0xbbfa2371	-0.0076336195
160	0xbd31670b	-0.04331116
161	0xbd3e4191	-0.046449248
162	0xbb9bb4d9	-0.0047517833
163	0x3dec119f	0.115267985
164	0x3e9be7b7	0.30450222
165	0xbd9e0948	-0.07716614
166	0xbe1a3024	-0.15057427
167	0xbe205220	-0.15656328
168	0xbcde4d4e	-0.027136471
169	0xbdf642e9	-0.12024481
170	0x3bbf856b	0.005844762
171	0xbdbee7b7	-0.0932154
172	0x3e13961c	0.14412731
173	0xbc7d1168	-0.0154460445
174	0x3d6ed4e6	0.058308505
175	0xbd8d62a4	-0.0690358
176	0x3e31c563	0.17360453
177	0x3e2b9809	0.16757216
178	0xbcca0fee	-0.024665799
179	0x3dcda00e	0.10040294
180	0xbda1455e	-0.07874559
181	0x3e1b2200	0.15149689
182	0xbc0db62b	-0.008649389
183	0xbd390e14	-0.04517944
184	0x3c1aae56	0.009440979
185	0x3e16e0da	0.14734212
186	0xbdd1f59b	-0.10251924
187	0xbdfd59a5	-0.12370614
188	0x3e8636b9	0.26213625
189	0x3e3c4c42	0.18388465
190	0x3c8c74cb	0.017145535
191	0xbe333378	-0.17500103
192	0x3dffbe4e	0.124874696
193	0x3daa8908	0.08326918
194	0xbd16e6e2	-0.03684128
195	0x3de47358	0.111548126
196	0xbcba0120	-0.022705615
197	0x3d5e48fb	0.05426882
198	0x3d84d073	0.06485071
199	0x3e6c98e7	0.23105203
200	0xbcc95965	-0.02457876
201	0x3bd35e4e	0.006450451
202	0xbc2cf17b	-0.01055562
203	0x3de919da	0.11381884
204	0x3e134e94	0.14385444
205	0x3c50d756	0.012746653
206	0xbe622080	-0.2208271
207	0x3d8b9af0	0.06816661
208	0xbd8b8c71	-0.068138964
209	0x3cd710fc	0.026253216
210	0xbe1b693f	-0.15176867
211	0x3e3a7bb0	0.18211246
212	0xbd572b1d	-0.05253135
213	0x3e049c1c	0.12950176
214	0xbea27ba8	-0.31734967
215	0xbd7f700d	-0.06236272
216	0x3d23edf8	0.040021867
217	0xbda63703	-0.081159614
218	0xbd29f7ab	-0.04149596
219	0x3d9f4ae1	0.07777954
220	0x3d80984e	0.0627905
221	0x3dc44b5b	0.095846854
222	0x3c78d47e	0.015187381
223	0x3d4afc9d	0.049557317
224	0xbe3448b3	-0.17605858
225	0x3d3b0a7f	0.045664307
226	0x3e081795	0.13290246
227	0xbc842c49	-0.016134398
228	0x3d4bc3f7	0.049747434
229	0xbd717292	-0.058947153
230	0x3dd27602	0.102764145
231	0x3e166425	0.1468664
232	0xbcbe2f55	-0.023215929
233	0x3d090742	0.033454187
234	0xbd368400	-0.04455948
235	0xbd9faf9d	-0.077971675
236	0xbbc84b40	-0.006112486
237	0xbd9a5c8f	-0.075371854
238	0xbac190a4	-0.0014767838
239	0x3d467987	0.04845574
240	0x3cf98dd8	0.030463144
241	0xbb41c3a6	-0.0029566078
242	0xbd7042df	-0.058657523
243	0xbdc26757	-0.09492367
244	0x3dbf8817	0.09352129
245	0x3dfe6830	0.12422216
246	0xbd0a0320	-0.033694386
247	0xbd584e13	-0.052808832
248	0xbda9b57d	-0.08286569
249	0x3d8c638f	0.06854927
250	0x3d864f21	0.065580614
251	0xbe505a9f	-0.20347069
252	0xbdb439a7	-0.08800059
253	0xbe04e33d	-0.1297731
254	0x3ce5919b	0.028023532
255	0x3d4ae4ec	0.049534723

network_body._body_endoder.seq_layers.2.bias f4 [128]
0	0xbcfd5a32	-0.030926798
1	0x3c8779b0	0.016537517
2	0xbca81219	-0.020516442
3	0x3d02ae69	0.03190461
4	0xbd825b1d	-0.06365035
5	0x3c1d7980	0.009611487
6	0xbd0db1c9	-0.034593377
7	0xbc5470af	-0.012966319
8	0xbd008c9c	-0.031384096
9	0x3d01adff	0.031660076
10	0x3c491321	0.012272627
11	0x3c9e0aec	0.019292317
12	0x3d0a8070	0.033813894
13	0xbd5521c4	-0.052034155
14	0x3cf5769e	0.029963788
15	0x3d82650d	0.0636693
16	0x3c83c33d	0.016084308
17	0xbc6d1b93	-0.014471906
18	0xbc7ba586	-0.015359288
19	0xba76eb22	-0.0009419193
20	0xbc960929	-0.018314915
21	0x3b697f53	0.003562887
22	0xbb198d55	-0.0023430188
23	0xbd6586d0	-0.05603677
24	0xbd801c69	-0.06255419
25	0xbd0ad64f	-0.033895787
26	0xbd1706d6	-0.036871754
27	0x3d39ccb6	0.045361243
28	0xbc86f317	-0.016473336
29	0x3d58e117	0.052949037
30	0xbc819c4a	-0.015821595
31	0x3ba8538e	0.0051369136
32	0x3c945267	0.018105699
33	0x3ce1f0b7	0.027580602
34	0xbbd0fee9	-0.006378044
35	0xbd73cc8a	-0.059521236
36	0xbc41bf08	-0.011825331
37	0x3d2d9af5	0.042384107
38	0x3c0654f0	0.008198962
39	0x3bba1c0c	0.005679613
40	0x3c660236	0.014038613
41	0x3ca82ad8	0.020528242
42	0xbc80ace3	-0.015707439
43	0xbc8c753e	-0.01714575
44	0x3b89d803	0.004206659
45	0x3c066423	0.008202585
46	0x3d39afde	0.045333736
47	0xbc122d90	-0.008921996
48	0xbd4300c4	-0.047608152
49	0xbd26b4c8	-0.04069975
50	0xbb2ed1ba	-0.00266753
51	0x3b9dcfc5	0.004816028
52	0xbcc7e6ff	-0.02440214
53	0x3d5f5cd0	0.054531872
54	0xbd2436c4	-0.04009129
55	0xbccf611b	-0.025314858
56	0x3cbd57ec	0.023113213
57	0x3c98cd0d	0.018652463
58	0xbb559775	-0.0032591496
59	0x3d146c05	0.036235828
60	0xbc4474f2	-0.011990773
61	0x3d1d02e9	0.038332853
62	0xbd0d044c	-0.034427926
63	0x3c6e0205	0.014526849
64	0xbcf8a992	-0.030354295
65	0xbca5a3b6	-0.020219665
66	0x3d529d93	0.051419806
67	0xbcf9d61f	-0.030497609
68	0x3b18cb1a	0.0023314417
69	0xbcc9e8ac	-0.02464708
70	0xbc7add80	-0.015311599
71	0x3c070f28	0.00824336
72	0x3d5aa89f	0.053383466
73	0xbd070493	-0.032963347
74	0xbcf48a0c	-0.029850982
75	0x3c766f13	0.015041131
76	0x3b5f771b	0.0034098092
77	0x3ce22327	0.027604653
78	0xbd132b28	-0.03592983
79	0xbb094758	-0.0020947065
80	0xbcf1d85e	-0.029522117
81	0x3bd718ac	0.0065642204
82	0x3ca2b9d0	0.019863993
83	0xbd6172de	-0.055041187
84	0x3bed4ef0	0.007242076
85	0xbd451367	-0.048114207
86	0x3d4fb9a0	0.050714135
87	0xbcc8d7c9	-0.024516957
88	0xbd2e114d	-0.042496968
89	0xbca2da01	-0.019879343
90	0xbd8781ce	-0.06616555
91	0xbc9f8414	-0.01947216
92	0x3d0cbf5a	0.034362175
93	0x3d394de0	0.045240283
94	0xbd1389f9	-0.036020253
95	0xbcd3fdfa	-0.025877941
96	0xbc44fa82	-0.012022616
97	0x3c3fcf36	0.011707118
98	0x3d8775a2	0.066142336
99	0xbd2e77f3	-0.04259486
100	0xbd121adb	-0.035670143
101	0x3ba97d03	0.0051723733
102	0xbcb807b3	-0.022464609
103	0x3d4a1d0e	0.049344115
104	0xbb0addde	-0.0021189372
105	0x3b24bf96	0.0025138608
106	0x3cf8a4ed	0.03035208
107	0xbc0453f9	-0.008076661
108	0x3cf18a5a	0.029484916
109	0x3d260dec	0.04054062
110	0xbcd766a3	-0.026294058
111	0xba1c7583	-0.00059684383
112	0x3d85d001	0.06533814
113	0x3c39c4cf	0.011338427
114	0xbd262e0c	-0.040571257
115	0xbd8f7da2	-0.070063844
116	0xbd08b706	-0.03337767
117	0x3d09080e	0.033454947
118	0xbd0e4cdf	-0.03474128
119	0x3c0bec3c	0.008540209
120	0x3be77a31	0.007064127
121	0xbb47f633	-0.0030511736
122	0x3d51fe11	0.051267687
123	0x3d210786	0.039313816
124	0x3cebb8e8	0.028774694
125	0x3a93356b	0.001123113
126	0x3d061686	0.032736324
127	0x3c53ffb9	0.012939387

action_model._continuous_distribution.log_sigma f4 [1, 2]
0	0xbfa146b0	-1.2599697
1	0xbef0b984	-0.47016537

action_model._continuous_distribution.mu.weight f4 [2, 128]
0	0xbd27e3c9	-0.040988717
1	0x3b0706c2	0.0020603393
2	0xbb16677c	-0.0022949865
3	0x3c98c1d3	0.01864711
4	0xbd38ba6b	-0.045099657
5	0x3ca80937	0.020512206
6	0xbc2b3531	-0.010449694
7	0xbd6d7f93	-0.057982992
8	0xbcac6a93	-0.021046912
9	0x3d716c26	0.05894103
10	0x3c9e131e	0.019296225
11	0xbba7cdd0	-0.0051209703
12	0x3d765ed6	0.060149036
13	0xbcbf8a32	-0.023381326
14	0xbc839820	-0.01606375
15	0xbcbf0c4f	-0.023321299
16	0x3d1e2c99	0.03861675
17	0x3c9a6b2a	0.018849928
18	0x3b19d2ce	0.0023471597
19	0x3cc68920	0.024235308
20	0xbd2b43b4	-0.041812614
21	0x3d269fb8	0.040679663
22	0xbc180dd3	-0.00928064
23	0xbcb23180	-0.021752119
24	0x398e07ae	0.00027090072
25	0xbba38d65	-0.004991221
26	0x3c2926d1	0.010324196
27	0xbcad23ed	-0.021135295
28	0xbc8cfbf8	-0.017209992
29	0x3b159718	0.0022825655
30	0x3cfeaf4d	0.03108945
31	0xbcd7b6bd	-0.026332254
32	0xbcf548f0	-0.029942006
33	0x3d706edc	0.058699474
34	0x3c6d3046	0.014476841
35	0xbac49886	-0.0014999069
36	0xbc2fa17e	-0.010719655
37	0xbd77a69c	-0.060461625
38	0xbd0ace0d	-0.03388791
39	0xbc8f74fc	-0.017511837
40	0x3d3c5156	0.045976005
41	0x3d0039e3	0.031305205
42	0x3c59c74f	0.013292148
43	0xbcf1267a	-0.029437292
44	0xbc8c4464	-0.017122455
45	0x3cfb95a1	0.030710997
46	0x3ae2d8d7	0.0017307055
47	0x3c7d7f5c	0.015472259
48	0xbc936d30	-0.0179964
49	0xbd5d372c	-0.054007694
50	0xbb98fa0e	-0.0046684807
51	0xbcd6ee52	-0.026236687
52	0xbd246465	-0.040134806
53	0xbd266913	-0.04062755
54	0xbbdf9528	-0.0068232007
55	0xbd4379b5	-0.04772349
56	0x3d52bf6a	0.051452078
57	0x3c229a82	0.009924533
58	0x3ceba32d	0.028764332
59	0xbc887a9c	-0.016660027
60	0xbd01682a	-0.03159348
61	0xbc67e65b	-0.014154042
62	0xbc370bcb	-0.011172245
63	0x3d0c7a53	0.034296345
64	0xbae11b17	-0.0017174211
65	0xbd24b638	-0.04021284
66	0x3d135078	0.035965413
67	0xbb7bf9d5	-0.0038448472
68	0xbc43cf12	-0.011951225
69	0xbb7ee611	-0.0038894454
70	0x3ba13cec	0.0049205925
71	0xbb5aaa4a	-0.003336566
72	0x3b83d496	0.004023145
73	0xbd0d9b4b	-0.034571927
74	0xbc4d7df7	-0.012542239
75	0x3cfe14c0	0.031015754
76	0x3b5aa4b6	0.0033362336
77	0x3bbaf630	0.0057056174
78	0xbd265103	-0.040604603
79	0x3ba9b4cc	0.0051790234
80	0x3c3c2aab	0.011484782
81	0xba19527b	-0.00058487774
82	0x3c879106	0.016548645
83	0xbd419e93	-0.04727037
84	0x3c8b4e8f	0.017005233
85	0xbc7d1594	-0.015447039
86	0xbcccc716	-0.024997275
87	0x3b61bf11	0.003444616
88	0xbc583599	-0.013196372
89	0xbb941997	-0.004519652
90	0xbcc4beb9	-0.024016725
91	0xbbc64dfb	-0.0060517765
92	0x3c875226	0.016518664
93	0xbcc78e32	-0.024359796
94	0xbce1a680	-0.027545214
95	0x3ccaae39	0.024741279
96	0x3bebe058	0.0071983747
97	0x3d383a0d	0.044977237
98	0x3c2ac952	0.010423975
99	0x3b8aff86	0.0042418865
100	0xbcfdc8d6	-0.030979555
101	0x3cf0bcc8	0.029386893
102	0xbb4ed91d	-0.0031562515
103	0x3cc0ce4f	0.023535876
104	0xbd04e3c9	-0.032443795
105	0x3c5182d5	0.01278754
106	0x3d766829	0.06015793
107	0xbc45b09e	-0.012066035
108	0x3d792dce	0.0608347
109	0xbc0bbb2e	-0.008528514
110	0xbc68f52a	-0.014218608
111	0xbce5e427	-0.028062893
112	0x3a845c76	0.0010098356
113	0xbd004f36	-0.03132554
114	0xbb8ce6c4	-0.0042999703
115	0xbc42e054	-0.011894304
116	0x3befd2e9	0.0073188436
117	0x3cff4e96	0.031165402
118	0xbd2d6086	-0.04232838
119	0xbca0cf82	-0.019630197
120	0x3bd287da	0.006424886
121	0xbc1effe5	-0.009704565
122	0x3bf5b1a9	0.0074979854
123	0x3af3367e	0.0018555669
124	0xbc999a6f	-0.018750397
125	0xbc443359	-0.011975133
126	0xbcaad992	-0.020855699
127	0xbcc31e28	-0.02381809
128	0xbca13956	-0.01968066
129	0xbd591f1a	-0.053008176
130	0x3c869264	0.016427226
131	0x3d54c7a7	0.051948216
132	0x3c682f8a	0.01417149
133	0x3d340770	0.043952405
134	0xbb523f85	-0.0032081318
135	0xbdac8819	-0.08424396
136	0xbcd8826d	-0.02642938
137	0xbccc9003	-0.024971014
138	0xbd9f7cba	-0.077874616
139	0x3d34eb5f	0.04416978
140	0xbdba5c8b	-0.090996824
141	0x3cdcda77	0.02695964
142	0x3dcc9910	0.09990132
143	0x3de843c0	0.11341047
144	0x3cd35d46	0.025801312
145	0x3cfe9fa4	0.031081982
146	0xbc1ac8fb	-0.009447332
147	0x3b131b88	0.002244683
148	0x3b405134	0.0029345276
149	0x3d83ee9c	0.064419955
150	0x3d4e2af5	0.050333936
151	0xbc1715b8	-0.009221487
152	0xbb558eaf	-0.0032586267
153	0x3b6db5e5	0.0036271748
154	0xbcd37051	-0.025810393
155	0x3dbb0c2c	0.09133181
156	0xbd16b14b	-0.036790174
157	0x3d8d55c8	0.06901127
158	0xbd6425da	-0.05570016
159	0xbdacdb8e	-0.08440314
160	0x3d6aaedc	0.057295665
161	0xbd89b909	-0.06724746
162	0xbd4168db	-0.04721914
163	0x3b85d985	0.0040847682
164	0xbcde1eb2	-0.027114246
165	0x3db81e4a	0.08990152
166	0x3d7bbd9a	0.061460115
167	0x3d947b6f	0.072501056
168	0xbd6c1dd3	-0.05764563
169	0xbda98c73	-0.08278742
170	0x3cd14823	0.025547093
171	0x3c49ad9e	0.01230946
172	0x3d7b3331	0.061328117
173	0x3ccd9d4f	0.025099425
174	0x3de1e489	0.11029918
175	0xbb16230a	-0.0022909069
176	0xbc28051a	-0.010255123
177	0x3c262197	0.010139844
178	0x3cc43f7f	0.023956059
179	0xbd98b93a	-0.07457204
180	0xbc99caf7	-0.018773539
181	0x3dd7a7d0	0.105300546
182	0xbc02ef30	-0.007991597
183	0xbc45deb8	-0.012077026
184	0x3b5a0ccb	0.0033271785
185	0x3d1b9c8e	0.0379911
186	0xbcac740b	-0.021051427
187	0x3d77f661	0.0605377
188	0xbd3d40ea	-0.046204485
189	0x3d6a2b75	0.05717035
190	0xbc4559a0	-0.012045294
191	0xbc3f40bc	-0.011673149
192	0x3bc691e5	0.0060598725
193	0xbd0835e6	-0.033254527
194	0xbd731ef6	-0.0593557
195	0x3bee19dc	0.0072662663
196	0x3d253f61	0.040343646
197	0xbd1c6596	-0.038182817
198	0x39df5838	0.00042599603
199	0xbd8308b6	-0.06398146
200	0xbde406d8	-0.11134118
201	0xbd98bee2	-0.07458283
202	0x3c258a14	0.010103721
203	0xbd8a8f8d	-0.067656614
204	0x3cb01431	0.021494003
205	0x3da59edd	0.080869414
206	0xbd1c52a8	-0.038164765
207	0xbc8098d6	-0.015697878
208	0x3b519767	0.0031981112
209	0x3da092be	0.07840489
210	0xbdab940c	-0.08377847
211	0x3c9b580a	0.018962879
212	0xbd877efa	-0.06616016
213	0xbcbb2eb1	-0.022849413
214	0x3dc3f63c	0.0956845
215	0x3c004be4	0.007830594
216	0x3d2ef6f7	0.042715993
217	0xbc137c1b	-0.009001757
218	0x3ce3f896	0.027828496
219	0x3d366e6a	0.044538893
220	0xbda71a41	-0.081593044
221	0xbe0f9d0d	-0.14024754
222	0xba1d5598	-0.0006001829
223	0xbc82f123	-0.015984124
224	0x3d1420bd	0.036164034
225	0xbcb70904	-0.022343166
226	0xbdd2f9a8	-0.103015244
227	0x3bf2cb6f	0.007409505
228	0xbcceaa3d	-0.02522766
229	0xbc8f734e	-0.017511036
230	0xbbafc7fc	-0.005364416
231	0xbda531bc	-0.08066127
232	0xbd881373	-0.06644335
233	0xbd340179	-0.043946717
234	0xbd00d7e0	-0.031455874
235	0xbd64522a	-0.05574242
236	0x3d8be790	0.068312764
237	0x3d927f2f	0.071531646
238	0xbc2d71cf	-0.010586216
239	0xbc733665	-0.014844512
240	0x3def6932	0.11689986
241	0x3d66d7a0	0.05635798
242	0x3ca362b9	0.019944536
243	0xbc8896ff	-0.016673563
244	0x3c869c38	0.016431913
245	0xbd91d134	-0.071199805
246	0x3cb710f5	0.022346953
247	0xbdaa5eaf	-0.08318841
248	0xbd6a2fef	-0.05717462
249	0xbc32b5bb	-0.010907586
250	0xbdb89f32	-0.09014739
251	0xbd9a232b	-0.07526239
252	0x3d96a958	0.073565185
253	0xbd1c7809	-0.038200412
254	0xbda28bd6	-0.07936828
255	0xbcf97423	-0.030450886

action_model._continuous_distribution.mu.bias f4 [2]
0	0x3cf23cf2	0.029570077
1	0xba729b8f	-0.00092547474

onnx::Div_51 f4 [182]
0	0x3ee345da	0.4438923
1	0x3e6914aa	0.22761789
2	0x3ee20832	0.44146878
3	0x3e6c6a5c	0.23087448
4	0x3ee3aa32	0.44465786
5	0x3e64b28f	0.2233374
6	0x3edf07dd	0.43560687
7	0x3e6e4cfa	0.23271552
8	0x3ee736bd	0.4515895
9	0x3e62ca1e	0.22147414
10	0x3ed937fa	0.4242552
11	0x3e6d8384	0.231947
12	0x3ee7db9a	0.4528473
13	0x3e62305f	0.22088765
14	0x3ed373b9	0.41299227
15	0x3e6c6a12	0.23087338
16	0x3ee8746f	0.45401332
17	0x3e632ea4	0.2218576
18	0x3ecc70f6	0.39929932
19	0x3e6a1048	0.22857773
20	0x3ee9079e	0.45513624
21	0x3e653911	0.2238505
22	0x3ecace78	0.39610648
23	0x3e67ead8	0.2264818
24	0x3eeacc79	0.45859125
25	0x3e675fc1	0.22595121
26	0x3ece1a44	0.40254414
27	0x3e67ef87	0.22649966
28	0x3eec9ca3	0.46213254
29	0x3e698672	0.22805193
30	0x3ed335bd	0.41251937
31	0x3e696b27	0.22794782
32	0x3eef5fd9	0.46752813
33	0x3e6c8a30	0.2309959
34	0x3ed91277	0.423969
35	0x3e6b8d63	0.23003154
36	0x3ef20535	0.47269598
37	0x3e6f84bc	0.23390478
38	0x3ee07642	0.43840224
39	0x3e6e33c9	0.23261942
40	0x3ef58e54	0.4796015
41	0x3e71cb20	0.23612642
42	0x3ee7998f	0.45234343
43	0x3e704a88	0.23465931
44	0x3ef8b016	0.48571843
45	0x3e71dc0a	0.23619094
46	0x3eeedf19	0.46654585
47	0x3e70820a	0.23487106
48	0x3efb2e90	0.49058962
49	0x3e6f5cba	0.23375216
50	0x3ef572ac	0.4793905
51	0x3e6fe751	0.23428084
52	0x3efd87a7	0.49517557
53	0x3e697d6e	0.22801754
54	0x3efa4b1d	0.48885432
55	0x3e6e7279	0.23285855
56	0x3eff3d00	0.49851227
57	0x3e5fdfb0	0.21862674
58	0x3efda30d	0.4953846
59	0x3e6b64d8	0.22987688
60	0x3effed87	0.49985906
61	0x3e5356ec	0.20638627
62	0x3eff664f	0.49882743
63	0x3e688492	0.22706822
64	0x3effcade	0.49959463
65	0x3e4475a2	0.19185498
66	0x3effffec	0.4999994
67	0x3e65e51d	0.22450681
68	0x3efe83fc	0.4971007
69	0x3e31319c	0.1730408
70	0x3eff7528	0.4989407
71	0x3e635208	0.22199261
72	0x3efad864	0.48993218
73	0x3e2130b4	0.15741235
74	0x3efe4998	0.49665523
75	0x3e60c341	0.21949483
76	0x3ef2b53e	0.47403902
77	0x3e1ce9fe	0.15323636
78	0x3efc7d51	0.4931436
79	0x3e604599	0.2190155
80	0x3ee89dbe	0.45432848
81	0x3e265f48	0.16247284
82	0x3ef9ef73	0.48815498
83	0x3e615de4	0.22008473
84	0x3edfad2d	0.4368681
85	0x3e32210f	0.17395423
86	0x3ef6c355	0.48195902
87	0x3e63133f	0.2217531
88	0x3ed8138d	0.42202416
89	0x3e3d43b1	0.18482853
90	0x3ef3ac3b	0.4759234
91	0x3e64b416	0.22334322
92	0x3ecfe742	0.40606123
93	0x3e478579	0.1948451
94	0x3ef0a00f	0.46997115
95	0x3e64b80e	0.22335836
96	0x3ec8ed32	0.39243466
97	0x3e4e3fb2	0.20141485
98	0x3eece059	0.46264914
99	0x3e627684	0.22115523
100	0x3ec59071	0.38586763
101	0x3e50547a	0.20344725
102	0x3ee8b54e	0.45450824
103	0x3e5d182a	0.21591249
104	0x3ec3f4da	0.38272744
105	0x3e4e1610	0.20125604
106	0x3ee3fde8	0.44529653
107	0x3e54aed0	0.2076981
108	0x3ec2961e	0.38005155
109	0x3e488004	0.19580084
110	0x3eddb961	0.43305495
111	0x3e49d241	0.19709112
112	0x3ec13278	0.37733817
113	0x3e405f74	0.18786412
114	0x3ed67f67	0.41894075
115	0x3e3d3624	0.18477684
116	0x3ebfda13	0.37471065
117	0x3e36185e	0.17782733
118	0x3eccb037	0.3997819
119	0x3e2f3eb5	0.17113765
120	0x3ebde4e7	0.370887
121	0x3e29b338	0.16572273
122	0x3ec40e3f	0.3829212
123	0x3e1f8ecd	0.15581818
124	0x3ebb4a19	0.3657997
125	0x3e1b1cc3	0.1514769
126	0x3ebb6f48	0.36608338
127	0x3e0df6c4	0.13863665
128	0x3eb7a71b	0.3586968
129	0x3e0a9ee3	0.13537173
130	0x3eb1165e	0.34587377
131	0x3df6623d	0.12030456
132	0x3eaf174b	0.3419746
133	0x3df1c80a	0.118057325
134	0x3ea2a189	0.31763867
135	0x3dcfa070	0.10138023
136	0x3ea3b7e6	0.3197624
137	0x3dcc013b	0.09961172
138	0x3e91654a	0.2839759
139	0x3da87906	0.082262084
140	0x3e9605a5	0.2930118
141	0x3da3e50e	0.08002673
142	0x3e812a46	0.25227565
143	0x3d80d65a	0.06290884
144	0x3e8291b5	0.2550179
145	0x3d747ec6	0.059691213
146	0x3e54945d	0.20759721
147	0x3d36fa68	0.0446724
148	0x3e5e28fa	0.21695319
149	0x3d1ccaf3	0.038279485
150	0x3e1e244e	0.15443537
151	0x3cedbb4a	0.02901997
152	0x3e132454	0.14369327
153	0x3c9b91f6	0.018990498
154	0x3dec60d9	0.1154191
155	0x3c78e9f6	0.015192499
156	0x3d40bd4c	0.047055528
157	0x3c1f08ad	0.009706658
158	0x3d6549aa	0.055978455
159	0x3bd7f02c	0.00658991
160	0x3ce44ad9	0.027867721
161	0x3bd91fc8	0.006626103
162	0x3c6738fc	0.014112707
163	0x3b99c2f3	0.004692429
164	0x3c8af34c	0.016961716
165	0x3ba5b05e	0.005056425
166	0x3bfe0721	0.0077523147
167	0x3b943c48	0.0045237876
168	0x3c07b829	0.008283653
169	0x3b993237	0.0046751755
170	0x3bee75e4	0.0072772373
171	0x3b924de8	0.0044648536
172	0x3bc9fa09	0.0061638397
173	0x3b91d9ff	0.004451036
174	0x3be5b868	0.0070105083
175	0x3b93b77e	0.004507958
176	0x3bc9584e	0.00614456
177	0x3b9005a5	0.004395204
178	0x3bd7feaa	0.0065916376
179	0x3b91bcfd	0.004447578
180	0x3bd7feaa	0.0065916376
181	0x3b91bcfd	0.004447578
